model/lstm_model.pt (torch, 206965 bytes, 15 tensors)

input_norm.weight f4 [23]
000000 e6 24 56 3f b5 42 4a 3f 73 ae 3c 3f e5 98 34 3f
       0.8365005 0.79008037 0.7370369 0.705458
000010 ad c9 28 3f 7a 2e 37 3f 72 f8 29 3f 8c 38 36 3f
       0.6593273 0.7155529 0.6639472 0.71180034
000020 39 d0 64 3f 5f 33 36 3f 44 51 2f 3f 09 a1 47 3f
       0.8938022 0.71172136 0.68483377 0.77980095
000030 73 66 5d 3f 33 80 3e 3f 6d c4 46 3f 7f cb 38 3f
       0.8648445 0.74414366 0.7764347 0.7218551
000040 f7 3d 48 3f 04 cc 40 3f fd 03 51 3f d9 83 4a 3f
       0.7821955 0.75311303 0.8164671 0.79107434
000050 c3 de 35 3f cc 3a 51 3f 06 36 31 3f
       0.7104303 0.8173034 0.6922306

input_norm.bias f4 [23]
000000 64 0d 10 bc 9f eb 1c bd 37 9b 74 3d 1e f6 7c 3d
       -0.008792255 -0.038310643 0.059718337 0.061758153
000010 a5 74 fe bb 07 32 82 3d 06 a5 34 bc 29 a5 4a 3d
       -0.00776537 0.06357198 -0.011025673 0.049473915
000020 15 80 a9 bd de 9e 3c 3d 36 67 83 3d 3c 70 a3 bd
       -0.08276383 0.046049945 0.0641617 -0.079803914
000030 e3 72 8d bd aa 55 6b bd ed a0 99 3d 2c 9d 63 3d
       -0.069066785 -0.057454742 0.07501397 0.055569813
000040 b7 ff fe 3c 49 2f 4f bd a0 4b a3 3d 7b d8 82 3d
       0.031127794 -0.050582204 0.07973409 0.063889466
000050 7a 67 50 bd b5 3d ac 3d 40 5e 4a bd
       -0.050879933 0.08410207 -0.04940629

lstm.weight_ih_l0 f4 [256, 23]
000000 fc 21 e3 bb 14 3e c1 3b 20 11 b7 3a a5 81 cc 3b
       -0.0069315415 0.005897293 0.0013966896 0.006241041
000010 b4 c6 53 3b ce 1b 66 bc c6 b2 dd bb 3f 4f 45 3c
       0.0032314481 -0.014044715 -0.006765696 0.0120428195
000020 32 7f 0f bc 7a ee 02 3c cd f1 c7 3b 34 2b 79 ba
       -0.008758353 0.007991428 0.006101823 -0.0009505034
000030 64 68 9f bc 6f 5c 77 bc 31 a4 99 bc 38 be a4 3b
       -0.019458957 -0.0150977215 -0.01875505 0.0050275587
000040 50 2c 09 3b 91 8c f1 bb 52 66 1d bc 66 d4 6a 3c
       0.0020930953 -0.007371493 -0.009606915 0.014332866
000050 ba ca ae bb b5 c9 a6 bc 9d 13 ad 3c 3b 91 f6 3c
       -0.0053342255 -0.020359853 0.021127516 0.030098548
000060 f4 8c ae bc 21 30 20 3d 0b 4b c2 3b 90 3f 03 3b
       -0.021307446 0.0391084 0.005929356 0.00200269
000070 76 68 d9 bc 46 5d ba 3c b0 27 14 bb 3a ea 55 3c
       -0.026539069 0.022749554 -0.0022606663 0.013056332
000080 f2 cc d1 ba 3c bf b2 3b 0b 0d 0e bc e0 ef 02 bc
       -0.0016006513 0.005454926 -0.008670102 -0.007991761
000090 ed d6 31 3d f5 59 1f 3d 9c fe 5d bb c8 04 0b bd
       0.04341786 0.03890415 -0.0033873683 -0.033940107
0000a0 06 11 d8 3b a5 c9 0e bd ef 9b ea bc 79 92 0f bc
       0.006593826 -0.034860272 -0.028638808 -0.008762949
0000b0 b1 6f 07 bd 0a fa 95 bb bf 87 71 3c fc 0b f7 b9
       -0.0330655 -0.004576926 0.014741837 -0.0004712044
0000c0 cd cf d5 3b 6e 86 00 bb 74 e0 42 bb 0d 68 65 bc
       0.006525016 -0.0019611376 -0.0029735835 -0.014001858
0000d0 6b 1b 69 3b 16 48 cb bb 70 e6 9a bb 20 e9 1c 3c
       0.003556932 -0.0062036617 -0.0047271773 0.009577066
0000e0 2c ac 08 bb f0 e5 d1 bb 1c c4 e2 3c 15 89 b6 3c
       -0.0020854576 -0.0064055845 0.027681403 0.022282163
0000f0 73 6b 27 3d 73 e5 51 3b 46 09 88 bc 0d 6b 20 bc
       0.040873956 0.0032027632 -0.016605984 -0.009791148
000100 9e ff 43 bb 9d 5c f2 bc 51 ae 38 3b 60 ec 9d bb
       -0.0029906998 -0.029585177 0.0028180073 -0.004819438
000110 04 a4 be bb 39 8b 5e 3d 17 cb 13 3d e4 23 f4 3c
       -0.005817892 0.05433199 0.036082353 0.02980227
000120 a3 51 02 bc 3e d4 3c bc 15 c5 1e 3c 47 01 bc 3c
       -0.007954034 -0.011525212 0.009690543 0.022949828
000130 49 8b 16 bc 94 8d ff bc 8c 54 38 ba 41 5d 14 bb
       -0.009188482 -0.03119544 -0.00070316414 -0.0022638591
000140 9f 92 ef bc d4 67 3a bd 12 f4 53 bc 37 70 b2 bc
       -0.02924472 -0.045509174 -0.012936609 -0.021782024
000150 89 66 7f 3d 3b a8 94 bc 4c 9a 47 bd ce 35 2f 3b
       0.062353645 -0.018146625 -0.048731133 0.002673495
000160 a0 0b f0 bc 25 94 ef 3c 42 bc d8 3c db 95 93 bc
       -0.029302418 0.029245446 0.026456956 -0.018015793
000170 fd 26 08 3d 50 61 40 bc 73 c6 87 3c 22 ce d0 b9
       0.033240307 -0.011741951 0.01657412 -0.00039826432
000180 b0 1c 17 ba 6c c1 6e 3c 81 36 48 3c b5 fd 12 3d
       -0.00057644676 0.014572483 0.012220026 0.035886485
000190 83 e2 6b 3c 64 50 94 bc 38 cd e4 ba aa 58 7d bb
       0.014397266 -0.01810474 -0.001745618 -0.0038657584
0001a0 95 e6 18 bb e0 33 85 bb d3 f2 14 3c 1c 17 99 3c
       -0.0023330797 -0.004065022 0.009091097 0.018687777
0001b0 86 84 48 bc fc fa e7 bc 3c ef e9 bc 47 8f 19 3d
       -0.012238627 -0.02831792 -0.028556459 0.037490156
0001c0 f9 86 a3 3c 06 15 02 bd d5 90 34 3c 96 c4 40 3d
       0.01996182 -0.03175833 0.011020859 0.04706248
0001d0 1b 84 9d 3c d1 65 f8 3c 17 45 c9 3b ab 44 1d bb
       0.019228032 0.030321987 0.0061422694 -0.0023997228
0001e0 d7 c1 1b 3c 07 a3 ca 3b 7a 75 64 3d 2e d5 e6 bc
       0.009506664 0.006183985 0.055776097 -0.028177824
0001f0 f6 2e 24 3c 97 36 9f 3b e5 25 d1 ba af 0d e8 bb
       0.010020962 0.0048588025 -0.0015956728 -0.0070817093
000200 bf 68 0d bd 06 a7 11 3d 9c fb 35 3d 59 3f 82 bd
       -0.03452372 0.035559677 0.044429407 -0.06359739
000210 e4 e6 37 bc f8 2e 40 bd 25 2d b2 3c 29 3c 68 bd
       -0.011224482 -0.046919793 0.021750042 -0.056698
000220 a5 87 3c bd 60 73 a4 3c 1d 18 b0 3c db 25 7c 3c
       -0.0460278 0.020074546 0.021495873 0.015389885
000230 cf 03 23 3c 67 86 43 bb d3 d4 90 ba ed 88 5e bc
       0.0099496385 -0.0029834749 -0.0011049755 -0.01358245
000240 ed 97 24 bc 9f 06 35 bc 31 dc a7 bc 9f 1d c0 bb
       -0.010045988 -0.011048942 -0.020490738 -0.005862906
000250 47 be 01 3b f9 8f 40 bb fb b1 25 bd a4 0d be bc
       0.0019797252 -0.002938269 -0.04045294 -0.023199864
000260 32 89 b6 3c 32 2c 30 3d af e3 3e 3c fd 61 8f bb
       0.022282217 0.043010898 0.011650964 -0.004375695
000270 a8 10 20 3c 94 c7 d6 3c 03 3d 64 bc 49 41 35 bc
       0.009769596 0.026218213 -0.013930562 -0.0110629285
000280 45 71 89 3b 36 a0 e3 3b a2 10 28 3c 27 73 85 3c
       0.004194411 0.006946589 0.010257872 0.01629026
000290 f2 d7 c2 b9 8b a1 fe b9 33 11 1b 3c 94 9e b0 3a
       -0.00037163455 -0.00048567014 0.00946455 0.0013474994
0002a0 33 20 47 bc d5 45 92 3b 90 26 d0 3a fd 74 11 ba
       -0.012153673 0.004463891 0.0015880633 -0.00055487436
0002b0 a6 ba 4f 3b 46 f5 b3 bc 6f e2 57 bc 80 18 2f 3b
       0.0031696944 -0.021967541 -0.013176545 0.0026717484
0002c0 7a e4 7c bc a2 99 f4 bc 3a d1 7e 3c 20 e3 e2 3b
       -0.015435332 -0.029858414 0.015552813 0.006924048
0002d0 3e ef 57 bc bf ae b3 3c 8e 93 32 3c 8c 5f ae 3b
       -0.013179598 0.021933911 0.010899438 0.0053214487
0002e0 a7 0e ba 3c 09 e3 a9 3d f3 52 c0 bb 22 08 c9 3b
       0.022712065 0.08295257 -0.0058692633 0.0061350027
0002f0 c2 fe a2 3a 97 87 78 bc ab 5d ca bc 33 6d 19 3c
       0.0012435543 -0.015169046 -0.024702867 0.009364414
000300 41 e5 81 3b f7 eb e2 bb 20 87 a3 38 12 a5 df bb
       0.003964097 -0.006925102 7.797615e-05 -0.006825098
000310 9f 63 b2 bd d1 67 09 bd 2c 48 f1 3c dc 42 77 3d
       -0.087104075 -0.033546273 0.02945336 0.060366496
000320 cc c1 d2 bc d8 b2 8c 3c 2e dc e8 bc 72 1a 56 3d
       -0.025727175 0.017175123 -0.028425302 0.052271314
000330 99 48 0f 3c 04 62 9f 3c 7f d1 32 ba 9e 0c 8a 3c
       0.008745336 0.019455917 -0.00068213785 0.01685172
000340 04 e5 01 bc c1 b9 aa 3c 4c 5e 7f bb 36 7c 8e bb
       -0.007928137 0.020840527 -0.0038966117 -0.004348303
000350 a7 27 69 bc 66 ee 12 ba 90 40 5c bb a9 19 a2 bc
       -0.014230645 -0.0005604982 -0.0033607818 -0.019787626
000360 22 1c 46 3c 9a 3e 76 bb dc 80 ae 3a 19 97 4a 3d
       0.012091668 -0.0037573935 0.001331355 0.049460504
000370 2f aa 5a 3d ff fe 86 3d 27 8f 0c bd 24 55 c1 3a
       0.053384956 0.065916054 -0.03431621 0.0014750105
000380 db 18 a1 bc f3 9a 9b bc 9c ba d9 bc 19 93 df bb
       -0.019665172 -0.018994784 -0.02657824 -0.0068229553
000390 85 de ad bc 51 2d a6 3b 7e d1 25 3d d0 9a 09 bd
       -0.02122427 0.00507132 0.04048299 -0.033594906
0003a0 ae b7 23 bc d7 18 cc ba 34 50 00 bc de 23 3a bc
       -0.009992523 -0.0015571368 -0.007831622 -0.0113610905
0003b0 4c 7a f7 3c e6 f6 48 3c 03 4f 61 3b 8a 73 93 3b
       0.030209683 0.012265896 0.003437937 0.0044998573
0003c0 6a 19 87 3b 16 ca d0 bc dc ed 2a bc a8 bb 92 bc
       0.0041229026 -0.025486987 -0.010432687 -0.017911747
0003d0 20 d5 95 3c 56 97 cb 3b a1 1f 06 bc 8f d1 da bc
       0.018290102 0.006213109 -0.008186252 -0.026711253
0003e0 df 70 ce 3b ec 6b 3a bd 1e c9 38 3d e8 a5 0d 3c
       0.0063000764 -0.04551308 0.045113675 0.008645512
0003f0 a6 b3 a1 bb 77 8a fd 3c 4a 6f 60 3d cf b2 db bb
       -0.004934746 0.030949814 0.054793634 -0.0067046653

lstm.weight_hh_l0 f4 [256, 64]
000000 be c3 65 bb 85 53 a4 bc eb fa b6 3b 95 53 af bb
       -0.0035059298 -0.020059356 0.005584111 -0.00535054
000010 a5 11 52 3c 9d e1 f9 3c ab 7b 05 3c 73 cd d9 3a
       0.01282159 0.030503089 0.0081471605 0.0016617015
000020 b8 da 0d bb 89 85 3d 3c da 62 a9 3c 5f 58 7f 3b
       -0.002164526 0.011567482 0.020677019 0.0038962585
000030 42 a9 f3 bb 1f 1f 64 3b 67 20 33 3a 2f dd 23 bc
       -0.0074359486 0.0034808589 0.00068331364 -0.010001465
000040 06 32 5b 3b 3c 2e 78 3a ce 23 0e bc b8 3b 3b 3c
       0.0033446564 0.00094673387 -0.008675529 0.011427812
000050 03 80 17 3c 6d e4 10 bc 19 b2 49 3c 1b e9 c4 3a
       0.009246829 -0.008843523 0.012310528 0.0015023084
000060 d6 e3 8e 3b ab d1 36 3c d0 ea d2 bb d7 6c be 3c
       0.0043606563 0.011158387 -0.0064366832 0.023245258
000070 d2 2c 1f bc 98 e4 f4 3b e2 ce 4d bc 8e 81 ea 3b
       -0.009715276 0.0074735396 -0.012561532 0.0071565574
000080 2e 34 96 3b 8d 6c ad bb 26 2d 77 bb 89 72 09 3c
       0.004583857 -0.0052924813 -0.003771612 0.008389124
000090 15 87 86 bc de f4 28 bb 2c f2 84 bb 62 d6 db bb
       -0.016421834 -0.0025780718 -0.0040571894 -0.006708906
0000a0 b8 b9 4c 3b 64 35 15 3c b3 51 97 bc 76 b1 39 3c
       0.0031238627 0.009106968 -0.018471574 0.011333814
0000b0 92 c0 4c bc f6 ae c1 3b 45 e7 3c bc 1b 63 42 bc
       -0.012497084 0.0059107495 -0.011529748 -0.011864449
0000c0 70 18 96 bc f0 26 ba bb 41 6f fc 3b 85 34 43 3a
       -0.0183222 -0.0056809112 0.007703692 0.00074464857
0000d0 50 0c 0f bc be 75 00 3b 9b 31 89 3b 5c aa 89 bb
       -0.008730963 0.001960143 0.0041868216 -0.0042012166
0000e0 c7 48 17 3b 12 34 2e 3c c2 d5 cf 3c 0f 2b e2 3c
       0.002308415 0.010632532 0.025370482 0.027608423
0000f0 22 9f cb bc f5 7d 8f 39 30 30 af b9 86 a0 0c bc
       -0.024856154 0.0002736893 -0.00033414504 -0.008583194
000100 98 d2 44 bc b4 6e cd bc 76 6f db bb d4 05 9c bc
       -0.0120131 -0.025077201 -0.006696637 -0.019045748
000110 86 3b e2 3c fc b9 db 3c 0d 4c 1b bd 46 57 b6 bb
       0.027616274 0.026822083 -0.037914325 -0.005564603
000120 49 85 43 3c 56 4c a3 bc 74 b2 a8 3c 16 9b b0 3c
       0.011933633 -0.01993386 0.020592906 0.021558326
000130 9d 6a 38 bc 98 00 cb 3c 7a 7f 57 3b 0b ee 83 bc
       -0.011255887 0.024780557 0.0032882378 -0.016104719
000140 8c 5a b9 3c b0 ff 87 bc d2 1d 84 bc 0e 43 01 3d
       0.022626184 -0.016601413 -0.0161275 0.03155809
000150 f7 49 b9 3c dc ad 9b bc ac 32 c3 3c ea 6a 48 3c
       0.022618277 -0.019003801 0.023827873 0.012232522
000160 72 5a 0b bc 04 c2 db 3c b2 b3 88 bc 38 cf 6c 3b
       -0.008505451 0.026825912 -0.016687248 0.0036134254
000170 8e 44 83 bc 80 9a ec 3c e7 5f b7 bc db fd 1d 3c
       -0.0160239 0.028882265 -0.022384597 0.009643043
000180 37 63 69 3c 89 08 6e bc 1c c0 dc 39 29 62 22 bd
       0.014244846 -0.014528402 0.00042104803 -0.039644394
000190 6d 8f b6 bc 04 72 11 bb bb a5 8e 3c 99 78 0a 3d
       -0.022285188 -0.0022193203 0.01741301 0.033806417
0001a0 2b 97 c2 3b 15 eb 66 3c 1b ac c8 bc 20 93 3a bb
       0.005938431 0.014094134 -0.024496129 -0.002846904
0001b0 d7 20 78 bc 86 9a 34 3b 49 6a a9 3b 3a ab dc bc
       -0.015144548 0.0027557923 0.005170141 -0.026937116
0001c0 29 02 a2 bc c7 f7 62 3c a8 e4 ed 38 99 35 5d bc
       -0.01977642 0.01385302 0.00011343631 -0.013501548
0001d0 c4 f0 22 ba b4 24 30 3b cb 8c ae 3b d8 a0 14 3d
       -0.00062156864 0.0026877346 0.0053268424 0.036286205
0001e0 ac b5 e3 3c b5 17 05 3d e6 95 c2 3c 35 6e a3 3c
       0.027796589 0.032493312 0.023753118 0.019950012
0001f0 13 4e 72 bc f5 95 89 3b d9 da 94 bc 0f d5 d3 3b
       -0.014789122 0.0041987845 -0.018170761 0.0064646075
000200 27 c8 e9 3a 2a 94 e7 b9 1c 54 95 3a 86 b8 6c bb
       0.0017836139 -0.00044170144 0.0011392864 -0.0036120727
000210 fe b8 99 3b b2 8f 09 3c 85 22 16 bc 9d 29 8b ba
       0.0046912422 0.008396076 -0.009163504 -0.001061726
000220 92 1a f4 bb 1c c1 dc bb 84 63 1f bb 64 8b d5 3b
       -0.0074494565 -0.0067368876 -0.002432079 0.006516861
000230 2f b2 47 bb 97 90 d7 3b 69 33 1c 3c d7 37 c0 bb
       -0.0030471196 0.0065785157 0.0095337415 -0.0058660316
000240 bc 76 47 3c 83 24 f5 bb 34 92 82 bb a2 20 ee 3b
       0.012174305 -0.007481159 -0.003984714 0.0072670737
000250 c2 cb 10 3c 50 b7 c7 bb 05 6f a8 3c ef 3a 0b 3b
       0.008837642 -0.0060948506 0.02056075 0.0021244844
000260 08 e5 93 bb e2 30 8e 3c 0c 22 49 3a 2d e5 d5 bb
       -0.0045133866 0.017357294 0.0007672615 -0.006527564
000270 81 2e 48 bc 4b 46 a5 3b d9 3b 33 bc 5f 0e 2f 3b
       -0.012218119 0.00504378 -0.010939562 0.0026711447
000280 34 97 ea ba 36 5f d7 bb ac e4 ec 3b d1 5b 0f bc
       -0.0017897845 -0.0065726293 0.0072294082 -0.008749918
000290 90 13 cc 3b 2c c7 3b ba 53 68 ab 3b 68 d9 0b 3c
       0.006227918 -0.0007163163 0.0052309423 0.00853572
0002a0 8a ab e7 bb ac cf f8 3b c0 ea 63 38 9c fe 93 bb
       -0.0070700096 0.007593116 5.4339645e-05 -0.004516436
0002b0 ae 91 c7 bb 19 38 ba 3b ca 1d 10 bc cf 7a 1d bc
       -0.0060903644 0.005682957 -0.008796165 -0.009611799
0002c0 36 75 f1 bb bf fc 4e 3c cf 0d f2 3b 68 3b b0 bb
       -0.007368709 0.012633502 0.0073869 -0.0053781755
0002d0 d5 29 82 ba 43 00 00 3b 10 df 1a 3c 03 6d 71 3c
       -0.000993068 0.0019531406 0.009452596 0.014735463
0002e0 07 88 df 3b 1d 1a d2 3b 94 53 3c 3c 34 18 f2 ba
       0.0068216356 0.0064118044 0.011494536 -0.0018470348
0002f0 81 2a 8d ba 2a eb 38 ba 7c 94 aa 3b be ea ec 3b
       -0.0010770113 -0.0007054085 0.005205689 0.007230132
000300 86 cd e4 bc c8 fb 19 bd 0b 6a 44 bc 33 ae 9d bc
       -0.027930032 -0.037593633 -0.011988173 -0.019248104
000310 41 10 f1 3c a9 31 02 3d cb c8 0e bd 01 e2 ea bb
       0.029426696 0.03178564 -0.03485946 -0.007168055
000320 c3 57 55 3c d4 b2 a3 bc 89 44 17 3d fd a4 3b 3d
       0.013021412 -0.019982733 0.036930595 0.045811642
000330 ce da 72 bc b5 f5 ec 3c 15 34 1c 3d e0 5f 03 bc
       -0.014822675 0.028925756 0.038135607 -0.008018464
000340 14 ff c9 3c f0 a9 f8 bc 22 d1 2a 3b e6 de 68 3c
       0.024657764 -0.03035447 0.0026064594 0.014213299
000350 43 32 ce 3c a0 02 ef ba 3c 48 83 3c ea e9 58 3c
       0.025170451 -0.0018235035 0.016025655 0.013239363
000360 32 2b 3c bc ac 14 07 3d 29 fc c4 bc 54 6b db 3c
       -0.011484908 0.0329787 -0.02404602 0.026784576
000370 bf f9 20 bd cd 37 e7 3c 0a fc 7a bc d2 73 8c 3c
       -0.039300676 0.02822485 -0.01531888 0.017145071
000380 92 73 d9 3b f7 e8 2a ba 78 eb b7 3b 81 3a e5 bc
       0.0066360915 -0.00065197 0.005612787 -0.027981998
000390 8c b9 07 bd 38 c9 27 bc 2d 6e c9 3c fa 47 62 3c
       -0.033135936 -0.010240845 0.024588669 0.013811106
0003a0 57 c9 b6 3b b1 cb 1d 3d ee 75 cb bc 30 20 20 bd
       0.005578201 0.038524333 -0.024836507 -0.039093196
0003b0 5f 7d 48 3b ae 5a 25 3d ef f0 e6 bb 24 90 0f bd
       0.0030592305 0.040369682 -0.0070477645 -0.035049573
0003c0 27 73 05 bd dd df 06 3d a5 b5 6a 3c 21 53 fd ba
       -0.03258052 0.032928336 0.014325534 -0.0019327143
0003d0 9b 19 e8 bc 43 9a 7f 3c c1 71 ab 3c 40 da 08 37
       -0.028332522 0.015600744 0.020928266 8.157047e-06
0003e0 d9 71 9c 3b 8f fa 61 3c da 57 02 3d ce 56 dd 3c
       0.004774314 0.013792648 0.031822063 0.02701893
0003f0 d3 3b dd bc 97 16 d2 3b 53 90 f5 bc 1f 04 31 3d
       -0.027006065 0.0064113843 -0.029976046 0.04321682

lstm.bias_ih_l0 f4 [256]
000000 3c a0 7a 3d c9 79 ad 3d 6b 0f 65 3d d6 48 63 bc
       0.061187968 0.08470494 0.055922907 -0.013872346
000010 87 95 52 3d 9f 41 73 3d 15 63 f4 3d 1e 00 a7 3b
       0.05141213 0.059388753 0.11932961 0.0050964495
000020 d4 2a a2 3d 3f 49 5d 3d 10 b7 9c bc 73 dc 97 3d
       0.07918325 0.05402493 -0.01913026 0.07415094
000030 cc 17 07 3d 45 f1 d4 3d 5a 5c 46 3d ae 35 92 3d
       0.03298168 0.10397581 0.048427917 0.07139145
000040 cf 77 c6 bb a2 c3 b9 3d ad ae 8c 3d 4b 3d de 3c
       -0.0060567628 0.09070517 0.06869254 0.027128836
000050 86 04 80 3d d9 4f 7b 3d bf b1 19 3d 78 45 d7 3c
       0.06250863 0.061355446 0.037523028 0.026278242
000060 6a f7 60 3d ce 61 43 3d a5 3c dd 3d 22 6a 69 3d
       0.054923452 0.047700696 0.10802583 0.05698598
000070 56 37 8f 3d 79 78 c1 3c 5b 88 fc 3b 54 71 9b 3c
       0.06992976 0.023617016 0.0077066845 0.018974937
000080 e0 8a e1 3c 2f db 22 bc 8a 3e 8b 3d dc 80 5c 3d
       0.027532041 -0.009939953 0.06799038 0.053833827
000090 50 a3 d0 3d 9e 29 34 3d 93 7b 75 bc 0f c1 fc 3d
       0.101873994 0.043985 -0.014983076 0.123415105
0000a0 1f 44 84 3c 05 7c a1 3d 20 87 c3 3d a1 26 5f 3d
       0.016145764 0.07884983 0.095472574 0.0544802
0000b0 56 15 dd 3d c7 02 a3 3c e4 31 d5 3d b7 1d d0 3c
       0.10795085 0.019898785 0.104099065 0.025404794
0000c0 d5 f4 d4 3d 2d 31 1e 3d ce 1b 94 3d 04 44 13 3d
       0.103982605 0.038621116 0.07231866 0.035953537
0000d0 84 d1 ca 3c 53 b3 1c 3d 65 23 3d bb 91 de 11 3d
       0.024758108 0.038256954 -0.0028860208 0.035612646
0000e0 16 a1 c7 3d 18 58 0d 3d 44 8d 07 3c 68 a5 78 bc
       0.097475216 0.03450784 0.008273426 -0.015176155
0000f0 73 38 a3 bc 2b 36 a6 3b d9 7b 5c 3d dd 18 72 3c
       -0.019924378 0.0050723753 0.053829048 0.014776436
000100 08 e4 00 3d a0 a4 c1 3d 37 b6 ad 3c 8c 54 2e 3c
       0.031467468 0.09455228 0.02120505 0.010640275
000110 67 e6 6c 3d 23 7e 8f 3d f3 2a 76 3d 03 c7 74 3b
       0.057836916 0.070064805 0.060099553 0.0037350066
000120 c4 98 af bc 1e 8a 2a 3d 3a d9 91 3d 9c bd 76 3d
       -0.021435149 0.041635625 0.07121511 0.06023942
000130 c5 e0 3c 3c f6 06 96 bb 91 2c fa 3c 63 83 21 bb
       0.011528199 -0.0045784665 0.030538829 -0.0024644963
000140 ab 58 38 3d bf e8 ed 3c 5b de 22 3d 8e 4b 85 3d
       0.045006435 0.029041646 0.039762836 0.065085515
000150 24 f3 bf ba 27 8b 13 bc 6d 3c a7 3d 84 de 7a bc
       -0.0014644605 -0.0090053445 0.08165822 -0.015311841
000160 e9 ad 2f 3d da 05 cc bb f0 35 d9 bb a1 6d b5 3d
       0.042890463 -0.0062262835 -0.0066287443 0.08858801
000170 b2 46 cb 3c 7b 40 65 3d 70 48 c0 3a 1c 90 ef 3c
       0.024813984 0.055969696 0.0014670026 0.029243521
000180 b2 c8 21 3c ac 2c 72 3d 2d 6f 92 3d 7a 47 d9 3c
       0.00987451 0.059124634 0.07150111 0.02652334
000190 2f 49 87 3d 33 f5 2f 3d 3f af 94 3c 72 90 9e bc
       0.066057555 0.04295845 0.01814997 -0.019355986
0001a0 2f 19 0d 3d 37 13 8c 3d 05 68 b5 bc 0f e5 a7 3d
       0.034447845 0.068396024 -0.022144327 0.08197986
0001b0 b6 62 4b 3d 9a 70 90 3c da 78 93 3d 11 32 b8 3d
       0.049654685 0.017631818 0.07200785 0.089939244
0001c0 ed 99 81 3d 49 fa 91 3d fe d3 d4 3d af 53 18 3d
       0.06328187 0.07127816 0.10391997 0.037189182
0001d0 4c 2b df 3b e4 26 e3 3b 14 b6 28 3d 7a 79 62 ba
       0.0068105813 0.0069321264 0.04118927 -0.0008639317
0001e0 57 db 9a 3d 3d 30 07 3d c7 a9 23 3d 56 c1 86 3d
       0.07561367 0.033004988 0.039956834 0.06579845
0001f0 84 18 64 3d 09 38 36 3c 6b dc c8 3c ab 69 ba 3d
       0.055687442 0.011121758 0.024519166 0.09102186
000200 00 63 b1 bd b1 2e 09 be 29 61 a1 bd 12 b3 a4 bd
       -0.08661461 -0.13396718 -0.0787986 -0.080419675
000210 b3 cf 69 3d 1d 3b 3c 3e e8 bf 24 be 38 a8 d9 bd
       0.057082843 0.18381925 -0.16088831 -0.10627788
000220 5c 61 d3 3d 34 75 7a bd 58 06 9d 3d da 9a e7 3d
       0.10321304 -0.06114693 0.076672256 0.113088325
000230 95 b8 13 bd 5b aa 87 3d 16 00 28 3e 4e cb c9 bd
       -0.036064703 0.066242896 0.16406283 -0.098532304
000240 eb 5d ce bb 8c 03 15 be 81 77 06 bd eb 2f fb 3d
       -0.006297817 -0.14552134 -0.03282881 0.12264999
000250 be ac ec 3d 03 c4 be bd b7 f6 5d 3d 05 0c 98 3d
       0.115563855 -0.0931473 0.054190364 0.074241675
000260 a5 b8 c2 bd 51 b0 10 3e f3 6b e6 bd 9f ba 30 3e
       -0.095078744 0.1412976 -0.112510584 0.1725869
000270 77 66 e8 bd 5b cb 9c 3d 1d 88 44 bd 82 c8 0a 3e
       -0.113476686 0.076559745 -0.04798137 0.1355305
000280 85 90 63 3d 2a 3c 0e be cb d6 99 3d a7 1e 34 be
       0.055557746 -0.13890138 0.07511672 -0.17589818
000290 15 04 83 bd 2c 1a 6b 3b 4f 14 78 3d d4 10 d3 3d
       -0.06397263 0.0035873754 0.060566243 0.10305944
0002a0 54 a1 ab 3d 47 be 02 3e 7e 1a 2b be 22 7b 25 be
       0.0838038 0.12767898 -0.16709325 -0.16160253
0002b0 5c f8 1b be fe 91 1d 3e 47 97 0b be ee 57 24 be
       -0.1523146 0.15387723 -0.13631926 -0.16049168
0002c0 9a 0e 10 be 2a bb 29 3e 74 8f 1d 3e 73 21 4b bd
       -0.1406807 0.16575304 0.15386754 -0.049592447
0002d0 b8 28 d4 bd 4e 6d fa 3d 15 0e 0a 3e a5 52 09 3e
       -0.10359329 0.122278795 0.13481934 0.13410433
0002e0 e5 2f 9f 3d 05 e9 03 3e c3 18 b7 3d 05 00 2e 3e
       0.07772807 0.12881859 0.0894027 0.16992195
0002f0 b3 07 fc bd fd 21 aa 3c 6e 6d d2 bd d5 51 fe 3d
       -0.12306156 0.02076816 -0.10274778 0.12417952
000300 ec b0 90 3d 2a 21 96 3d 9c f8 93 3d a8 7f 33 b9
       0.07064995 0.07330544 0.07225153 -0.00017118326
000310 ee 78 a9 3d b5 e6 da 3d 4e 48 a9 3d f0 e4 aa 3c
       0.08275019 0.10688535 0.08265744 0.020861119
000320 b5 ee ad 3d 9c d2 02 3d 9b 5f 8d 3b 4b ab c8 3c
       0.084927954 0.031939134 0.0043143756 0.024495741
000330 ae d7 7a 3d 02 82 3c 3c a1 5c e7 3d 42 30 d1 3c
       0.061240844 0.011505606 0.112969644 0.025535706
000340 16 2c 15 3d 07 e2 b8 3d 68 88 24 bd cd c2 c7 3d
       0.036418997 0.09027486 -0.04016915 0.09753952
000350 bf fa 7d 3d e5 69 b2 bc 4c 57 98 38 4f 10 1e 3d
       0.06200671 -0.02177901 7.264185e-05 0.03858977
000360 4d a5 16 3d 8d e9 0e 3e cd 5a f6 bc 3c 97 17 bd
       0.036778737 0.1395628 -0.030072594 -0.037009463
000370 7c a6 a5 3d 52 c2 ef 3c 41 40 2f bd 44 3e 18 3d
       0.08088395 0.029267464 -0.042785887 0.037168756
000380 3a f9 77 3d 33 ea 00 bd 61 5f af bc 2c f6 a8 bc
       0.060540415 -0.03147335 -0.021407785 -0.020625196
000390 0d 3e 07 3e 4d 66 5a 3d 7e c0 f0 bc 54 86 7e 3d
       0.13207264 0.053320218 -0.029388662 0.062139824
0003a0 41 7d 15 3d 05 d2 73 3d b9 35 90 3c fd fa 15 3d
       0.036496405 0.059526462 0.017603742 0.036616314
0003b0 44 d0 2f bc 27 36 46 3d 16 82 ed 3d 6a 47 33 3b
       -0.010730807 0.048391487 0.115970775 0.0027355799
0003c0 35 62 e9 3d fd d6 9b 3d b1 48 a4 bc 80 7c 7b 3d
       0.11395685 0.07609365 -0.020054193 0.06139803
0003d0 e6 af ab 3d f6 cd a9 3b 8b 9f cd 3d e8 2b be 3d
       0.08383159 0.005182023 0.10040196 0.09285718
0003e0 c1 2e 5f bc 09 47 bc 3d 65 e0 b0 3d c4 09 dd 3d
       -0.013621987 0.091932364 0.0863655 0.10792878
0003f0 e5 e8 d1 3d 98 86 0c 3c bd 32 0a 3e 12 f1 b6 3d
       0.10249499 0.0085770115 0.13495918 0.08932699

lstm.bias_hh_l0 f4 [256]
000000 7d e9 2d 3d ae 64 51 3d bb a8 4b ba 3c ed a8 3d
       0.042459 0.051121406 -0.0007768978 0.08248374
000010 3a 71 86 3d d4 7a b1 3c fe 94 b3 bb 81 f6 aa 3b
       0.06564565 0.021665014 -0.0054804077 0.005217374
000020 e4 8f 96 3a e7 19 40 3d 91 c8 ee 3d 15 a3 86 3d
       0.0011486975 0.046899702 0.11659349 0.06574074
000030 9c 3e 4e bc 4d b4 e3 bb 64 eb a0 3d ac 3b 8e 3d
       -0.012588169 -0.0069489838 0.07857397 0.06944975
000040 df ea 34 3d fc 2f 76 3d 5a c8 72 3d 61 7b d6 bb
       0.044169303 0.060104355 0.0592731 -0.0065454696
000050 89 d5 a1 3d a4 34 dc 3c 22 60 d2 3d 57 c9 2b bc
       0.07902057 0.02688057 0.10272242 -0.010485015
000060 4b d8 28 3d 8c 74 eb 3d 85 76 02 3d 06 cd d3 3d
       0.041221898 0.11496839 0.03185131 0.103418395
000070 58 85 3b 3d 0d 6c 8d 3c 5c 7a b5 bb 34 dc 0f 3d
       0.045781463 0.017263437 -0.005538268 0.03512211
000080 a6 6f f4 3c 66 cf 11 3d 38 b8 d1 3c 8c c4 b2 3a
       0.029838394 0.03559818 0.025600538 0.0013638898
000090 b8 5d b0 3d 63 d4 07 3d 4d 84 1b 3d 1d 1c c4 bc
       0.086116254 0.033161532 0.03796797 -0.023939187
0000a0 4f 2a aa 3d ac 2b 32 3d cc 2d 9d 3d 89 52 70 3d
       0.08308851 0.04349868 0.07674751 0.05867246
0000b0 8f eb 5f 3d be 91 30 ba af 90 a0 3d 31 b8 e0 3d
       0.054668006 -0.00067355845 0.07840096 0.10972632
0000c0 a7 a6 76 3d 6f 42 1b 3d 4a ad be 3d f7 66 8b 3c
       0.060217526 0.037905153 0.09310396 0.01701687
0000d0 67 50 05 3d ba 82 02 bc af 0c 31 3d 76 f0 5a 3d
       0.03254738 -0.007965738 0.043224987 0.053451978
0000e0 a6 4a c1 3d 6d ef 3b 3d 23 71 e2 3d b7 af 9c 3d
       0.09438066 0.04588263 0.11056735 0.076507024
0000f0 5a c4 08 3b b3 ba 94 3c d1 fb 86 3d 6b 4d bb 3d
       0.0020868988 0.018155431 0.06590999 0.09145626
000100 8e c3 ca bc a7 ca 2a 3d 61 76 bf 3c ac 89 a5 3d
       -0.02475145 0.04169717 0.023371877 0.080828995
000110 b2 fa a7 3d 4f 57 24 3c f8 59 96 3d d5 e4 2d 3b
       0.08202113 0.010030582 0.07341379 0.00265341
000120 71 59 fb 3c 9b 19 13 3d 39 90 a3 3d f6 07 4a bc
       0.030682297 0.03591309 0.07986493 -0.012331
000130 92 e6 ad 3b c8 03 df 3b 64 d3 aa 3d 86 c7 e3 3c
       0.005307027 0.0068058707 0.08341101 0.027805101
000140 6e 75 a2 bc be c7 c1 3d 43 b8 3b 3d c6 e4 48 3d
       -0.019831385 0.09461926 0.045830023 0.0490463
000150 a6 db 5d 3d 9e 41 3a 3d 4b d2 d2 3d ea 1e 92 bc
       0.05416455 0.045472734 0.102940165 -0.017837007
000160 29 f6 32 bc 9a 62 c4 3d 89 11 3d bc f8 16 63 3d
       -0.010922947 0.09589119 -0.011539825 0.055441827
000170 9b af 99 3b 90 65 66 3d 6b 5b 7f 3d ff e4 33 3d
       0.0046901233 0.0562492 0.062343042 0.04391956
000180 9a 58 17 bc 92 b7 86 3d 7f 3e 63 3d 5d b6 dd 3d
       -0.009237433 0.06577982 0.055479523 0.10825799
000190 e3 8d 64 3d 33 25 9d bc f9 13 e1 3c 65 90 25 3d
       0.055799376 -0.019182777 0.027475344 0.04042091
0001a0 27 00 a0 bc 38 a0 5d 3d b5 f0 75 3d 41 b4 54 3d
       -0.019531323 0.054107875 0.06004401 0.051929716
0001b0 16 c4 5d 3d f9 21 8b 3c f7 9d 3f 3d 43 82 b9 3c
       0.05414208 0.016983973 0.046781506 0.022645121
0001c0 ed e5 06 3c 40 ca 93 3d 41 f4 c8 3c 1b b9 0e 3d
       0.0082335295 0.072163105 0.024530532 0.0348445
0001d0 6c 4f 0a 3d 9c 79 c5 3b 07 49 b4 bc 21 c2 a1 3d
       0.03376715 0.00602646 -0.022007478 0.07898355
0001e0 d2 fe 86 3d 51 2d 8c 3d 00 7b 85 3d 5e 30 65 3d
       0.06591572 0.06844581 0.06517601 0.05595433
0001f0 f4 97 ca 3d 55 60 50 bc d5 ee 94 3b 7e bc b0 3d
       0.09892264 -0.01271828 0.0045450726 0.08629702
000200 65 38 8c bc 04 ea fa bc 78 7d f3 bc 60 cf 38 be
       -0.017116735 -0.030629165 -0.029722914 -0.18047857
000210 7b e2 16 3e 15 37 87 3b f8 0b 21 be f9 ee 64 3c
       0.14734833 0.0041264393 -0.15727222 0.013972991
000220 20 6d 34 3e 72 91 a6 bd ad 3a 19 3e 67 06 3f 3e
       0.17619753 -0.0813321 0.1496379 0.18654786
000230 a1 d0 07 be db 88 27 3e c3 ae 33 3d b4 20 c5 bd
       -0.1326318 0.163608 0.043867838 -0.09625378
000240 a7 93 b5 3d f0 49 7a bc 01 72 ee bd 38 df 92 3d
       0.08866053 -0.015276417 -0.11642838 0.07171482
000250 dd 2a e7 3d 4b cb 0d be df 12 25 3e 70 57 9b 3d
       0.112874724 -0.13847081 0.1612048 0.07585037
000260 90 76 84 bd cb 25 27 3e 64 de 2c be 6e 7b ec 3d
       -0.064679265 0.1632301 -0.1688171 0.1154698
000270 35 2c 08 be 97 c5 d0 3d 93 f7 0a bd d7 07 33 3d
       -0.13298114 0.10193937 -0.03392751 0.04370865
000280 5a e9 04 3d bd 32 46 3c f7 83 20 3e 21 94 12 be
       0.032449104 0.012097058 0.1567534 -0.14314319
000290 43 ca 26 be d5 df 1f be cb 63 20 3e f5 ab 19 3e
       -0.16288094 -0.15612729 0.15663068 0.15007003
0002a0 db e8 44 3c 06 a0 c5 3d 8a 0e 35 bd 1d 92 10 bd
       0.012018408 0.09649663 -0.04420332 -0.035295594
0002b0 8b 85 e5 bd f2 32 c8 3d cd 62 11 be 7a 37 ad bd
       -0.11207112 0.09775342 -0.14197846 -0.08457847
0002c0 1c 17 f3 bd 8b 01 6c 3d cc 5b c9 3d 3d c8 08 be
       -0.11869642 0.05761866 0.09831962 -0.13357635
0002d0 fc ab 20 bd 05 ff 50 3d 06 a9 09 ba 33 71 4d 3d
       -0.039226517 0.051024456 -0.00052513217 0.050156783
0002e0 ee 49 34 3e c3 53 8e 3d 82 61 2a 3e 2e 4d c5 bc
       0.17606327 0.0694957 0.16638759 -0.024084654
0002f0 71 b4 ba bd e8 98 8a 3d 69 01 38 be 4a e9 6e 3d
       -0.09116448 0.06767446 -0.17969288 0.05832795
000300 97 54 93 3c c7 2b dd 3d 51 ed c5 bc 2c 05 de 3d
       0.017984672 0.107993655 -0.024161013 0.1084083
000310 30 f4 48 bb e9 cc f2 bb 0f 90 e3 bc b2 ac 13 3c
       -0.0030663125 -0.007409681 -0.027778653 0.009013342
000320 c8 d3 31 3d 8a d4 34 3b c2 b5 af 3d 77 f2 be bb
       0.04341486 0.0027592503 0.085795894 -0.005827244
000330 d9 73 d3 bc bb 8e cd 3c 41 d2 98 3d a4 7f a5 3d
       -0.025812076 0.025092473 0.07461978 0.08080986
000340 0b 52 25 3d 34 84 95 bc 4c 60 2c bd d2 34 ad 3d
       0.040361445 -0.018251516 -0.042084023 0.0845734
000350 0b 99 82 3d b4 7a d5 3c 92 72 b1 3d 9b 1a db 3c
       0.06376847 0.026059486 0.08664431 0.026746085
000360 f1 0c ad bc 45 6d 17 3e 92 60 0f 3d b6 d1 c8 3d
       -0.021124335 0.14787777 0.035004206 0.09805624
000370 7f 24 19 bd 3f cd 81 3c b5 7f 85 3d 2f 3e 40 3d
       -0.03738832 0.01584494 0.06518499 0.046934303
000380 39 2b d6 3c 53 c8 8b 3d af b4 ce bc 0b 29 7b 3c
       0.026143657 0.06825318 -0.025232641 0.01532961
000390 59 20 db 3d 9a e6 09 3d 16 ba 7d 3b 17 e0 ca 3d
       0.10699529 0.033667184 0.0038715652 0.09906023
0003a0 06 3f a3 3a 77 92 c3 3d 92 ea c4 3d 99 01 c8 3d
       0.0012454696 0.0954942 0.09615053 0.0976593
0003b0 db 12 02 3d 2e 62 bd bc 1c 90 9f bc b8 59 f0 3c
       0.031756263 -0.023118105 -0.019477896 0.029339656
0003c0 a7 9d 11 bd c6 36 84 3d 60 39 b6 3d e7 7c 3d 3d
       -0.03555074 0.0645576 0.08897662 0.046261694
0003d0 fa 6d 87 3d 92 a6 24 bb 81 70 70 bc a4 aa fc 3d
       0.06612773 -0.0025123698 -0.0146752605 0.123372346
0003e0 7a 4b c8 3c eb ad cf 3d a4 a1 37 3a 26 82 c1 3c
       0.024450053 0.10140594 0.00070049823 0.02362163
0003f0 a4 90 07 3d 32 6b e4 3c 67 23 d3 3d f3 cd a3 3d
       0.033096924 0.027883146 0.10309487 0.07998266

attn_fc.weight f4 [64, 64]
000000 1d 33 bf bb 52 13 19 3c 7f 83 f5 ba 53 2e b4 3b
       -0.0058349506 0.009342985 -0.0018731205 0.0054986863
000010 e4 4a 17 3b 58 1e 52 3a 7c f2 d7 bb 92 8c a3 ba
       0.002308541 0.0008015386 -0.0065901857 -0.0012477806
000020 2a 50 ff bb 15 84 51 3b d8 08 58 bc a3 e9 b2 bb
       -0.0077915387 0.0031969596 -0.013185702 -0.0054599806
000030 fa f0 9a bb af 91 31 3c 7a 6a 28 3a 68 67 17 bc
       -0.0047284337 0.010837956 0.00064245577 -0.009240963
000040 e7 3a bb bb f4 a4 c7 3b 38 7a 8a 3b 71 ed b0 3b
       -0.005713809 0.006092662 0.0042259954 0.005399399
000050 ac 6d 1a bb f2 8a 0d 3c e0 ee a3 3b 18 2e b2 37
       -0.0023563905 0.008639084 0.0050028414 2.1240718e-05
000060 48 fe 4a 3b 2c 5d 24 bc 88 29 df bb 3a 47 2e bc
       0.0030974317 -0.0100319795 -0.006810371 -0.010637099
000070 51 87 10 3c e5 a0 e0 3a 14 62 27 bb 6d 64 78 3b
       0.008821324 0.0017137794 -0.0025540637 0.0037901655
000080 6b ef 9a bb a6 03 28 3a 39 51 4c bc 66 ac 29 3c
       -0.004728248 0.0006409235 -0.012470537 0.010356044
000090 e5 0a bd 3b b6 c1 a8 3a 36 cf 05 3c db 73 28 bc
       0.005769121 0.0012875113 0.008167079 -0.010281528
0000a0 ea a1 04 bc bd 42 1b bc e3 be 96 ba a7 41 29 3c
       -0.008095244 -0.009476361 -0.001150098 0.010330594
0000b0 18 17 27 bc 49 04 9d bb 5d 5e 85 3c 40 2d 11 3c
       -0.010198377 -0.0047917706 0.016280347 0.008860886
0000c0 7e 98 20 3c af f4 f8 3b be e6 07 bb bd c2 5a 3b
       0.009801982 0.007597528 -0.0020736898 0.0033380233
0000d0 37 3d 9a 3a b2 5b 47 ba 5d 56 9f bb d5 2d 5b 3c
       0.0011767511 -0.0007604911 -0.00486259 0.013377626
0000e0 15 6f c3 bb d6 68 29 3b 48 ed 88 3b 33 e1 c8 bb
       -0.0059641697 0.002584984 0.0041786768 -0.0061303615
0000f0 9e 4c 42 3b 0c 83 b4 b8 6c b7 2f b8 d5 b7 40 3c
       0.0029647718 -8.607478e-05 -4.1894076e-05 0.011762579
000100 10 0a 9f 36 d2 b2 08 b7 48 90 86 b5 76 e9 a5 36
       4.7397407e-06 -8.1478665e-06 -1.0025769e-06 4.9445616e-06
000110 81 17 a4 b8 ea 11 0f 38 62 6f 98 b7 fa 69 7b 36
       -7.824507e-05 3.411054e-05 -1.8171679e-05 3.74636e-06
000120 b8 17 03 39 60 f5 52 b7 07 4e 42 b8 c7 c3 5c 36
       0.0001250197 -1.2574106e-05 -4.6325873e-05 3.2896512e-06
000130 20 6f 82 b7 97 40 0f 39 99 25 6d 38 50 87 e0 34
       -1.5548954e-05 0.00013661604 5.654022e-05 4.1821704e-07
000140 7a d7 95 b5 4a f0 4c 37 09 32 7f b7 90 1a 48 b6
       -1.1164077e-06 1.2215294e-05 -1.5210834e-05 -2.9817784e-06
000150 cc e6 3a 37 c2 03 be b6 c1 76 40 b8 e4 54 b1 35
       1.11402005e-05 -5.6628787e-06 -4.5886965e-05 1.3212234e-06
000160 b7 45 bd 36 96 4f 0d b8 b0 e0 ba b5 86 65 33 36
       5.640755e-06 -3.369114e-05 -1.3923473e-06 2.6732173e-06
000170 6a db fc 35 07 4a df b5 a5 6e 87 b7 69 4f b6 36
       1.8839321e-06 -1.663634e-06 -1.6144777e-05 5.4332672e-06
000180 0c 0d ae 38 6d 34 78 b8 91 2a fc b5 74 6e 10 37
       8.299397e-05 -5.9176633e-05 -1.8787852e-06 8.608786e-06
000190 91 7b 55 38 1d b7 eb b6 06 f6 bc b6 46 a9 3a 36
       5.0898238e-05 -7.024863e-06 -5.6314775e-06 2.781469e-06
0001a0 30 cc 85 37 b5 9e 92 b7 b2 db 19 b6 24 99 40 39
       1.5949918e-05 -1.747846e-05 -2.2926656e-06 0.00018367596
0001b0 7b ab 11 b8 fc b4 c2 36 7f 5c 4f b7 d6 4f 8f b5
       -3.4730398e-05 5.80272e-06 -1.2359697e-05 -1.0677566e-06
0001c0 21 c2 de b5 b1 aa 05 36 ed 56 78 36 f8 b1 ad b4
       -1.6596788e-06 1.99179e-06 3.7005477e-06 -3.235325e-07
0001d0 77 a8 44 37 ed 5e e6 b6 e2 b7 67 37 51 f1 fb b7
       1.1721734e-05 -6.865585e-06 1.38114865e-05 -3.0033903e-05
0001e0 e1 f6 95 36 a6 bd 10 b7 05 e7 95 36 60 04 7e b6
       4.4692865e-06 -8.627225e-06 4.4674402e-06 -3.7851496e-06
0001f0 45 9d 92 35 df 17 20 37 ce 32 4c 38 b2 83 a2 b7
       1.0923619e-06 9.542301e-06 4.8684706e-05 -1.937323e-05
000200 74 22 ed bb 4b 05 ca 3c 9a 36 f3 3b 2d cb a6 bb
       -0.007236773 0.024660727 0.0074222805 -0.0050901384
000210 4f 86 3f bc 67 b7 a7 bc 02 74 b7 3c 36 0f 00 3a
       -0.0116897365 -0.020473195 0.022394184 0.0004885079
000220 50 aa b2 3b cf 32 42 bc 9e 9b 22 bc ba 7d 65 bc
       0.0054524317 -0.011852934 -0.009924797 -0.014007026
000230 a0 83 c2 ba 77 75 b1 b9 04 b6 3e 3b 7b 33 ab 3c
       -0.0014840253 -0.0003384759 0.002910019 0.020898571
000240 5c 15 b4 bb d8 2c b2 3c ca 1f 06 3c 37 02 3d bc
       -0.0054957103 0.021749899 0.00818629 -0.011536173
000250 88 77 37 bc c6 88 22 3c 6b 70 81 bc 58 5f af 3a
       -0.011197932 0.009920305 -0.015800675 0.0013379855
000260 7e 7c 20 3c 03 2b 6b bc 31 23 15 bc 32 fa a6 bc
       0.009795306 -0.0143535165 -0.009102629 -0.020382974
000270 91 46 3f 3c d2 99 9e 3b cd 18 e1 3b 0a 33 4b ba
       0.011674539 0.004840114 0.0068694116 -0.0007751441
000280 76 31 10 3c de eb c6 bb f3 8b 1b bc 26 9d d6 3c
       0.008800855 -0.006070598 -0.009493816 0.026197981
000290 f2 65 c5 3c 97 a7 10 3c 4d d6 b0 3b 19 15 9c bc
       0.024096463 0.008829019 0.0053966404 -0.019053029
0002a0 f2 c6 24 bc da 4a dc bc 2f a8 0d 3c cf 76 81 3c
       -0.010057198 -0.02689116 0.008646055 0.015803723
0002b0 1d 5a 22 3c 8c cc 41 39 b8 79 3a 3c 03 2b bb bb
       0.00990918 0.00018482114 0.011381559 -0.0057119145
0002c0 12 18 5c 3c 4d 35 ec 3b 85 8a 2d bc 7a fe 87 3c
       0.013433473 0.0072085024 -0.010592108 0.016600836
0002d0 7f 4b c0 3b 9a f7 5a bb 62 09 01 3c 22 28 29 bc
       0.005868375 -0.0033411742 0.007875772 -0.01032451
0002e0 d9 c1 60 bc 4c 6d 17 bc 8c 15 06 bc cd c6 00 3c
       -0.013718092 -0.009242367 -0.008183848 0.007859898
0002f0 d3 9d ff bb ac 3f 2b bb 82 c3 65 3c c5 ec bd bc
       -0.0078007965 -0.002613048 0.0140236635 -0.02318419
000300 c7 25 31 3c be be dc 3b 0f ca 7e 3b f8 43 83 3c
       0.0108122295 0.0067366054 0.003887776 0.016023621
000310 f1 c4 29 bc 6a c9 c5 3b 57 17 df bb 29 4b aa ba
       -0.010361896 0.0060359733 -0.0068082022 -0.001299237
000320 08 2d 2d bb 4e a5 a7 3b 21 08 60 bc 6b 0e b9 bb
       -0.0026424546 0.0051161414 -0.013673813 -0.0056474707
000330 bc fc ce ba d9 4e f2 3a 4d b3 10 bc df 71 fc 3b
       -0.0015791873 0.0018486633 -0.008831811 0.007704004
000340 44 44 a7 bb ff 4a 16 3c 2a 72 55 3c ee 20 80 bc
       -0.0051045734 0.009173154 0.013027707 -0.015640702
000350 32 f2 be bb 58 f9 0d 3c 48 7a 39 bc 54 37 8b 3a
       -0.005827212 0.008665405 -0.011320658 0.0010621347
000360 d8 48 1c bb b6 b2 dd ba b9 68 fb 3a ff a4 3f bc
       -0.002384713 -0.0016914222 0.001918099 -0.011697053
000370 48 99 c4 bb 3f 62 61 bc b4 ae 5f 3b fe 7b c8 b8
       -0.005999718 -0.013756334 0.003413123 -9.5598385e-05
000380 8d d1 6a bb a9 3d bd 3b 9e 9c 0b 3a 39 81 b6 3a
       -0.0035830468 0.0057751727 0.0005325767 0.0013924009
000390 53 93 43 3c 05 b7 d6 bb 71 66 b5 ba 9c 4b 22 3b
       0.01193698 -0.0065525793 -0.0013839734 0.0024764305
0003a0 cc 41 9f 3a 94 00 3b bc 68 94 52 bb ed 83 7c 3c
       0.0012150346 -0.011413712 -0.0032131914 0.015412313
0003b0 1e cc 3f 3b b8 1a e7 bb a2 03 10 3c 31 13 37 3c
       0.002926595 -0.0070527457 0.008789929 0.011174009
0003c0 22 53 15 3b fe 59 b4 bb 03 5d be 3a 08 72 89 3b
       0.0022785147 -0.005503892 0.0014523569 0.004194502
0003d0 18 39 f2 b8 68 fd 1e bb 62 34 b2 bb 6e 77 9e bc
       -0.00011550094 -0.0024259929 -0.0054383734 -0.019344058
0003e0 1f 37 04 bc b2 5b d3 3b be d2 99 ba 03 41 00 bc
       -0.0080697825 0.00645014 -0.001173578 -0.007828
0003f0 12 7e 88 3c bc d9 eb 37 a5 a5 56 3c d1 9f 09 bc
       0.016661678 2.8115574e-05 0.013101016 -0.00839992

attn_fc.bias f4 [64]
000000 3e 10 61 b9 d0 cf b1 36 9f 50 65 bb b2 14 2d bb
       -0.00021463723 5.2992036e-06 -0.003499068 -0.002641004
000010 80 91 04 39 2f 79 5f 3b 45 21 d9 3a dc 6c fd 3b
       0.00012642704 0.003409933 0.0016565701 0.0077339243
000020 07 4c a7 bc 2e 91 8f 3b 33 10 1a 3b 62 26 eb 3b
       -0.020421995 0.0043813204 0.002350819 0.0071762064
000030 73 a5 0b 38 4a 20 43 37 a3 a0 85 32 73 70 9f bc
       3.329427e-05 1.1630424e-05 1.5556287e-08 -0.0194628
000040 50 cc 4a 34 74 e3 db bb 7f 0f 94 33 1f 5d 62 3d
       1.8887044e-07 -0.006710464 6.894606e-08 0.05526459
000050 a4 af 5a 34 32 72 00 3d 01 bd c8 af 48 43 90 35
       2.036673e-07 0.031358905 -3.6514083e-10 1.0748417e-06
000060 6e 33 1f 3d 8b 16 6d bb 58 a3 64 32 01 9e d0 32
       0.038867407 -0.0036176767 1.3308487e-08 2.4286239e-08
000070 74 2b 67 3c 60 9b 8e 36 17 1c 1c 3c db fb 83 3c
       0.014109481 4.250018e-06 0.0095281815 0.016111305
000080 63 4d 27 b9 93 b8 8e bb b0 af ca bb 91 23 3c b3
       -0.0001595519 -0.004355499 -0.0061854944 -4.380451e-08
000090 27 e4 99 bb 4c 38 42 3c 12 0d 4e bb ab 10 d6 bb
       -0.0046963873 0.0118542425 -0.0031440896 -0.0065327487
0000a0 c4 a9 f1 3b 14 c1 33 39 c9 d2 ec 3b a1 4c f4 3b
       0.007374974 0.00017142697 0.007227276 0.007455424
0000b0 87 45 ce bb 41 d3 d9 bb dc 11 dd 3b 15 30 b4 b8
       -0.0062949094 -0.006647498 0.006746514 -8.592025e-05
0000c0 04 c5 1f 3c 73 d8 3d 3a e4 81 ce 3c 2c 16 96 b9
       0.009751562 0.0007242031 0.025208421 -0.0002862675
0000d0 24 c5 01 bd ca f2 a7 ba f2 7b f7 3b 6e 1e 9e 3b
       -0.03168215 -0.0012813446 0.007552617 0.004825405
0000e0 85 68 82 bb 81 5e 86 b6 fa 19 78 ba a9 52 08 3c
       -0.003979745 -4.004513e-06 -0.000946432 0.008320489
0000f0 a0 67 29 3c f3 98 75 b4 59 e3 4b bc c1 e4 5f 36
       0.0103396475 -2.2873046e-07 -0.012444341 3.3362742e-06

attn_score.weight f4 [1, 64]
000000 38 06 49 bc 77 d6 bb b7 5f 05 0f bd 0d 28 be bc
       -0.012269549 -2.2392005e-05 -0.03491723 -0.023212457
000010 80 2d ba 3b d1 cb a6 bd 9c eb 93 3c ba b5 59 3d
       0.0056816936 -0.08144344 0.018056683 0.053151824
000020 e7 af cc 3d e3 e4 37 bd 00 9b ae 3c cc 1d 4e 3d
       0.09994488 -0.044896018 0.021314144 0.050321385
000030 6d 34 b2 b9 41 55 52 3b d0 d6 b6 38 1c e5 3e bd
       -0.00033989866 0.0032094272 8.718448e-05 -0.046605214
000040 16 74 34 38 fd bc 67 bd 76 40 81 b8 54 30 f7 bd
       4.3023458e-05 -0.056576718 -6.163206e-05 -0.12069765
000050 7c b7 44 b8 47 a9 b4 bd 14 4c cb b5 cb bf f8 38
       -4.6900925e-05 -0.088213496 -1.514682e-06 0.00011861286
000060 38 86 dc 3d eb 82 e6 bc 17 7b 10 b8 b9 6c 6f 37
       0.10767788 -0.028138598 -3.444691e-05 1.4270824e-05
000070 14 80 8d bd 86 19 6e b9 e4 bf 82 bd 05 5a 1a 3d
       -0.069091946 -0.00022706957 -0.063842565 0.037683506
000080 5b 29 0b bc 93 33 d2 3d 4c 43 2b 3d dc c8 a3 b7
       -0.008493747 0.10263743 0.041812226 -1.9524647e-05
000090 5a 4d f5 bc a7 11 bb 3d 11 41 c1 3d 77 99 76 bd
       -0.02994411 0.09134226 0.094362386 -0.06020495
0000a0 23 08 cc bd 66 fd 23 3c 65 6a e5 3d f1 7a 36 3d
       -0.099624895 0.010009145 0.11201934 0.04455084
0000b0 77 ca 61 bd 04 b1 03 bd a5 8b 45 3d 70 ec e6 bb
       -0.055124726 -0.032151237 0.04822888 -0.0070472285
0000c0 e1 e3 d5 bd 45 80 52 3c f7 f2 69 3d 9b 7d 1a bc
       -0.10443855 0.012847965 0.057116475 -0.009429361
0000d0 e9 c4 da bd 6f d5 9e bc ba c6 6a 3d 75 9b 5c bd
       -0.10682089 -0.019388882 0.057318427 -0.053859193
0000e0 12 a3 a9 3d ad dd 38 bb cb f1 c4 3d 66 4d 87 bd
       0.08283056 -0.00282083 0.09616431 -0.066065595
0000f0 86 f7 21 3d de 30 07 38 29 1f 91 bd 5a 02 21 3b
       0.039542697 3.223202e-05 -0.070860215 0.0024568052

win_fc.weight f4 [64, 178]
000000 86 19 bf 3a 1c 46 92 3a 05 2d db 3a 82 ac 4e 3b
       0.001457975 0.001115981 0.0016721791 0.0031535928
000010 8c 2f 94 ba 31 60 d3 39 ff 9b 86 3a 52 91 e8 b9
       -0.0011305674 0.00040316724 0.0010269879 -0.0004435876
000020 e6 e9 0f bb 11 ae 76 3a 13 1e 48 bb c8 41 cc bb
       -0.0021959483 0.0009410093 -0.0030535504 -0.0062334277
000030 97 6b 9c 3a c0 73 d6 bb 98 4c 44 bb 01 96 1b 3b
       0.001193392 -0.00654456 -0.002995288 0.0023740532
000040 b2 5f 6a bb 04 f5 38 3b 9b b8 ec 3a c5 3f 87 bb
       -0.0035762605 0.0028222213 0.0018060388 -0.004127475
000050 e4 5e 1c 3b 5f f4 1e 3a 9d 03 49 bb 5e 69 5a bb
       0.002386027 0.0006063636 -0.003067232 -0.0033326964
000060 24 a4 90 b9 e1 a3 55 bb 11 94 4d 3b 0e cd 6e bb
       -0.00027588115 -0.00325989 0.0031368772 -0.003643814
000070 4d 3e 35 3b 6d ce df ba c9 91 00 ba b7 88 33 ba
       0.0027655542 -0.001707507 -0.0004904536 -0.000684868
000080 80 8c d6 3a 51 4b ba 3a ce f0 bf b9 f5 7a 25 3b
       0.0016368777 0.001421312 -0.00036609772 0.002525029
000090 1b 16 ec 3a 5f 47 52 3b 0c da 3a 3a f7 08 05 3b
       0.0018011959 0.0032085998 0.00071278284 0.0020299533
0000a0 cc 07 9a ba 23 a1 42 bb f9 89 2b 3b b2 8e c6 3b
       -0.0011751591 -0.0029698096 0.0026174767 0.006059491
0000b0 0c a5 b5 3a 5c 8e 95 bb 64 a0 21 3b 4c cd d1 3a
       0.0013858392 -0.0045640897 0.002466225 0.0016006618
0000c0 e1 36 fc 3a 6a 58 a0 bb e7 fa 36 bb 44 51 5b 3a
       0.0019242429 -0.0048933523 -0.0027920546 0.00083662965
0000d0 e9 81 a4 b9 4c 36 f8 37 68 80 39 bb eb 3c e1 ba
       -0.00031377308 2.9589188e-05 -0.0028305296 -0.0017184293
0000e0 7f fb cb ba ff 41 b3 bb 5f a3 05 38 43 a4 c7 ba
       -0.0015562623 -0.005470514 3.1861822e-05 -0.0015231449
0000f0 fe 38 3c 3b d9 f2 7c 39 ee 78 99 3b 89 3b bd ba
       0.0028720493 0.0002412306 0.0046836054 -0.0014437299
000100 1a b4 8a b9 1f 9f 62 3b 20 0b dc 3a 3e 68 60 39
       -0.00026455597 0.0034579707 0.0016787983 0.00021401138
000110 1f 59 1c b9 b2 19 84 bb 49 0d 8f 3b 48 e1 d1 39
       -0.0001491052 -0.0040313834 0.0043655974 0.00040031434
000120 e7 b6 eb ba ec cb a2 3a 2f e3 05 bb c3 e7 03 bb
       -0.0017983586 0.0012420393 -0.0020429601 -0.0020127154
000130 7b 8c da 3a 86 c5 64 bb 39 0b 57 bb 66 2d 70 3b
       0.0016673947 -0.0034907772 -0.0032813086 0.0036648153
000140 fa 02 9c 3a 5d 71 54 39 0a 50 02 3b 68 00 54 bb
       0.0011902743 0.00020260127 0.0019884133 -0.0032348875
000150 47 dc 81 b9 df fe ee 3a e0 61 ed 3a 10 a3 1c bb
       -0.00024768917 0.0018233916 0.0018110834 -0.0023900904
000160 68 9c 4d 3b 3d 4a da bb de 88 5f 3b 70 4a 55 3a
       0.0031373743 -0.006661682 0.0034108679 0.0008136397
000170 03 e9 e3 3a 42 e2 18 39 8d 61 40 39 10 03 90 39
       0.0017388168 0.00014580137 0.00018346887 0.00027468102
000180 0e 8c 4b bb 9a dc ef 3a 8e 6d 80 b8 2c 35 b0 3b
       -0.003105882 0.0018299997 -6.123922e-05 0.0053774323
000190 8f a1 fd 3a 99 63 32 ba a4 bb 25 bb d7 d5 7d 3a
       0.0019350516 -0.00068050023 -0.0025288844 0.00096830487
0001a0 52 a8 3e bb be 02 32 ba 11 fc 71 3b 3a d8 15 3b
       -0.0029092026 -0.000679057 0.0036923925 0.0022864477
0001b0 dd 11 b6 3b c8 4d 78 bb 77 38 0c 3b aa 3e 34 3b
       0.0055563287 -0.0037888158 0.002139596 0.002750317
0001c0 18 01 63 3a 54 aa 20 bb 56 b8 eb ba ca 6d 0a 3b
       0.0008659526 -0.0024515586 -0.0017984014 0.0021122568
0001d0 70 52 73 3b 3d 88 a9 b9 e1 04 f0 ba 5e 79 2c bb
       0.0037127994 -0.00032335697 -0.0018312001 -0.0026317458
0001e0 1c 95 ee ba 9a 6b 69 bb f3 4a 06 bb 1d d8 42 bb
       -0.0018202397 -0.0035617114 -0.002049145 -0.0029730864
0001f0 64 7a b3 3b b6 51 0e b8 ce 3a 39 3b 4c a0 cb ba
       0.0054772366 -3.3931537e-05 0.002826381 -0.0015535443
000200 82 b5 26 3c 37 2d ac ba cc 2f 2d 3c 8b 40 13 b9
       0.010175111 -0.0013136034 0.010570478 -0.00014043057
000210 8c 5c 8b bb 30 ed aa 3b ea a5 2e 3b bd 5b b5 bb
       -0.004252976 0.0052162632 0.0026649185 -0.0055346177
000220 15 5e c0 3c 41 9a 23 bb 41 75 1f 3c 89 30 98 3b
       0.023482362 -0.0024963769 0.009732545 0.0046444577
000230 39 08 56 3b c4 00 e6 3b ce 35 27 bc 3a 07 67 3a
       0.003265871 0.0070191342 -0.010205699 0.00088130275
000240 c4 00 20 3c 42 f8 c8 bb c9 50 80 3c ae d6 98 bb
       0.009765808 -0.0061331103 0.015663521 -0.0046642637
000250 c4 d1 84 3c c1 46 76 b9 49 5f 99 3c 98 5d 01 bc
       0.016213305 -0.00023486746 0.018722193 -0.00789585
000260 bd 53 a9 b9 18 78 0a 3c 01 54 1a bb fc 03 68 3b
       -0.00032296582 0.008451484 -0.0023548605 0.0035402765
000270 10 09 9c 3a e3 95 41 bc a2 30 33 bc 58 24 93 3b
       0.0011904556 -0.011815521 -0.010936888 0.0044904165
000280 6e 34 32 bc 2b df a7 3c 6a 1a da bb 05 6f c5 ba
       -0.010876758 0.020492157 -0.006655981 -0.0015062994
000290 44 2a 18 bc cf d5 15 bc 05 d5 73 bc 98 12 53 3c
       -0.009287421 -0.009145214 -0.014882331 0.012882851
0002a0 0c d7 e4 b8 80 cb 3e 3b ea 1e 34 bc f2 1e 6b bb
       -0.00010911943 0.0029112995 -0.010993699 -0.00358766
0002b0 2b 36 46 bb f0 2d 4a 3c 19 54 d0 bb 9c 79 a6 ae
       -0.003024469 0.012340054 -0.0063576815 -7.570408e-11
0002c0 f2 8d d9 af a1 d3 3d bc 5e 59 10 bc 9b 71 a8 3b
       -3.9572928e-10 -0.011586101 -0.008810369 0.005140496
0002d0 3e 64 58 ba 3c 97 83 3b a8 30 bb ba 33 dc 86 3b
       -0.00082546833 0.0040158313 -0.0014281468 0.0041156053
0002e0 75 ad b2 3c ba 61 b0 3b 66 f9 88 3b 0e 30 ba bb
       0.021811226 0.0053827437 0.0041801212 -0.005681998
0002f0 aa d3 9d 39 51 66 99 bb 7a ad 1f 3b 16 33 67 bb
       0.00030103076 -0.0046813865 0.0024364875 -0.0035278252
000300 d6 2d 53 3b e4 b0 e0 bb 1b ea a3 3b 00 49 eb 3b
       0.0032223365 -0.0068570245 0.005002273 0.007180333
000310 9e 27 a1 3a e5 85 77 3b a7 41 b1 39 fc 1d 79 3c
       0.0012295132 0.0037769016 0.00033808986 0.015204903
000320 ba 3f a1 3c f8 89 c0 39 e1 a5 f3 39 d4 fe 82 3c
       0.019683708 0.00036723888 0.0004647216 0.015990652
000330 7d c8 03 3c 04 1b 69 bb 54 ab 9d bc c1 c5 d2 bb
       0.008043406 -0.003556908 -0.019246735 -0.0064322655
000340 7a 0f b6 ba a3 13 fb 3b d2 c0 33 bc 36 3b f2 bb
       -0.001389011 0.007662253 -0.010971265 -0.0073923124
000350 89 5b 8f 3b 07 3a b3 bb 4d 70 70 bc 62 71 2a bc
       0.0043749255 -0.005469564 -0.014675212 -0.010403009
000360 93 2a ac bb f4 94 0d bc 08 64 7f 3b 52 7d 2e bc
       -0.0052540987 -0.00864147 0.0038969535 -0.010649996
000370 23 ff bd 3a e3 ab 38 bb d6 70 48 bc 14 a0 a0 3b
       0.0014495592 -0.0028178624 -0.012233933 0.0049018953
000380 ab bd 9c bc 30 79 a4 3b f2 1b 2a 3b bc 18 ed 3b
       -0.01913341 0.0050193295 0.0025956598 0.0072356146
000390 56 5d 16 bc 3b 39 f9 bb a3 53 49 ba df b7 a3 3b
       -0.009177526 -0.0076056994 -0.00076800043 0.0049962844
0003a0 7c 4a 11 bc 82 9e 5c bb 52 8e 0f 3c c2 87 8e bb
       -0.008867856 -0.0033663814 0.008761959 -0.0043496797
0003b0 5a cf b4 bb 7f 6e 6e 3c 2e bf 51 ba 51 73 1e bb
       -0.0055178823 0.0145527115 -0.0008001205 -0.002417762
0003c0 86 46 ef bb 04 f6 03 bb 55 42 b4 bb 9d f9 34 bb
       -0.007302108 -0.002013565 -0.0055010715 -0.0027614601
0003d0 6f f7 32 bb 7d 69 b3 bb ab d6 07 3c 3d 95 18 3c
       -0.0027308126 -0.0054752217 0.008290927 0.009312925
0003e0 f5 a7 e9 bb ab 99 16 ba 1e 8b 3c 3c 6c 9b db bb
       -0.0071306177 -0.0005744944 0.0115077775 -0.0067018773
0003f0 00 45 0b 3c 34 df f2 39 2f 55 1b bb b8 a2 5c bc
       0.008500338 0.00046324136 -0.0023701896 -0.01346653

win_fc.bias f4 [64]
000000 de 73 58 bb b1 4d 05 bc ca 3e aa 3c 15 f2 2a 3b
       -0.0033028047 -0.008136199 0.020781893 0.0026084234
000010 9f df 62 bb 42 b2 45 3d 8f 88 0c 3d 62 36 2f bc
       -0.0034618152 0.048265703 0.03430992 -0.010694118
000020 46 b5 27 b8 a4 a6 29 3d 33 4b d5 3a f3 86 0e bc
       -3.9984727e-05 0.041418687 0.0016273021 -0.008699167
000030 b1 66 ca 3c bd 91 9a 3b 83 eb 1f 3d db 4a 54 3b
       0.02470717 0.0047170804 0.03904296 0.003239325
000040 30 c2 d7 bc 7d 11 62 3c a9 21 a5 3c 26 59 84 bc
       -0.026337713 0.013798115 0.020157652 -0.01615579
000050 26 a6 73 3d 3b 39 a7 bc 5b 80 7f bc bc 89 09 ba
       0.059484623 -0.020413032 -0.015594567 -0.0005246659
000060 a6 5f 2f b7 6d d7 75 3b 37 0d 6d 3b 6c 61 98 3d
       -1.0453083e-05 0.0037512437 0.0036171207 0.07440457
000070 2c 54 ac 3b e9 29 0d 3d 37 35 95 3c 64 df cd 3c
       0.0052590575 0.034463797 0.018213851 0.025130935
000080 e1 be 8b 3c 65 b7 66 3b ea 6b 87 3d 26 f0 41 bc
       0.017058792 0.0035204527 0.0661238 -0.011837041
000090 a8 1c f9 ba dd 93 9d 3c 17 d6 0f bc 60 3e f1 bc
       -0.0019005733 0.019235546 -0.00877907 -0.029448688
0000a0 51 d5 43 bc ec 3d 9d bc c7 b7 ed bb d6 84 38 3c
       -0.011952714 -0.019194566 -0.007254574 0.011262139
0000b0 8b d6 90 bb 4b d7 3b 3c 9a 46 19 3d 12 2b ac 3b
       -0.0044201068 0.011464904 0.037420847 0.005254158
0000c0 d4 45 ab 3c f0 f3 93 3c f3 75 2f 3b 9f 8c 13 3d
       0.02090732 0.018060654 0.0026773184 0.03602278
0000d0 84 96 da bb bc 3c 26 3d 6e 7c 19 bd a8 ee 20 b7
       -0.006670775 0.040585265 -0.03747218 -9.59231e-06
0000e0 4a d8 9d 3c a4 0c 33 3b 3b d7 8b 3d 79 d6 a0 3b
       0.019268174 0.0027320767 0.06828161 0.0049083796
0000f0 25 fe 6b 3d 89 27 21 bb 7c a5 33 bc 55 bb 8b 3c
       0.057615418 -0.0024590215 -0.0109647475 0.0170571
