model/lstm_model.pt (torch, 188277 bytes, 10 tensors)

lstm.weight_ih_l0 f4 [256, 23]
0	0x3cf8fd8a	0.030394334
1	0x3d569aa5	0.052393574
2	0x3c293c81	0.010329367
3	0xbb4940dc	-0.0030708825
4	0xb56abbca	-8.744506e-07
5	0x3cbe09aa	0.023197968
6	0x3cffee45	0.031241545
7	0xbd288269	-0.041139994
8	0xbce629e8	-0.028096154
9	0x3b45a75c	0.0030159568
10	0xb9dae682	-0.00041751942
11	0xbc490a93	-0.0122705875
12	0xbd143ab0	-0.03618878
13	0x3cb7fe88	0.022460237
14	0xbd5df633	-0.054189872
15	0xb9ee3eea	-0.00045441772
16	0xbd4c8c16	-0.049938284
17	0x3c0a4d23	0.008441242
18	0xbc9fa256	-0.019486587
19	0xbd2c1797	-0.042014685
20	0xbd105e5e	-0.035246246
21	0x3cd25312	0.025674377
22	0xbc0c5cac	-0.008567017
23	0x3c40f290	0.011776581
24	0xbb688c7e	-0.003548413
25	0x3bfe677b	0.0077638007
26	0x3b32d1dd	0.0027285733
27	0x3a660436	0.0008774431
28	0xbb975d63	-0.004619287
29	0x3c265047	0.010150976
30	0x3ca5116f	0.020149915
31	0xbd25e83a	-0.04050467
32	0xbc1d6667	-0.009606934
33	0x312f291c	2.548922e-09
34	0xbbaab0e4	-0.0052090753
35	0x3d0a9ddb	0.03384195
36	0x3d0c391c	0.03423415
37	0x3b11c1de	0.0022240798
38	0xb984cbbe	-0.00025328802
39	0x3c016c55	0.0078993635
40	0x3b97e577	0.0046355086
41	0x3d031f02	0.032011993
42	0xbc849582	-0.016184572
43	0x3cf172af	0.02947363
44	0x3c80478c	0.015659116
45	0x3d027ad7	0.03185543
46	0x3ce41218	0.027840659
47	0x3c30c4a4	0.01078907
48	0xbc584089	-0.01319898
49	0x3b2eac15	0.0026652862
50	0xb3c2b430	-9.066605e-08
51	0xbc53dbb0	-0.012930796
52	0xbd1de949	-0.038552556
53	0xbd48670a	-0.04892639
54	0xbd4c40e4	-0.049866572
55	0xbc8c0991	-0.017094405
56	0xb7004edf	-7.647758e-06
57	0xba1701d8	-0.00057604676
58	0xbc8f2102	-0.017471794
59	0xbc965801	-0.01835251
60	0xbc40cd27	-0.011767662
61	0xbd80ba56	-0.06285541
62	0xbb8c063a	-0.004273203
63	0xbceb2672	-0.028704856
64	0xbb57392d	-0.0032840476
65	0x3bec7fa1	0.007217363
66	0xbc1b585b	-0.009481515
67	0xbd0db8a7	-0.034599926
68	0x3cacc764	0.02109117
69	0x3bec3567	0.0072085145
70	0x3d2e86b5	0.042608935
71	0x3b877e5c	0.0041349363
72	0xbb0fe931	-0.0021959061
73	0x3b10345d	0.0022003867
74	0xb930b9ca	-0.0001685388
75	0xbc6d8a04	-0.0144982375
76	0xbd1e6495	-0.03867014
77	0xbbe8bffd	-0.007102965
78	0x3c806695	0.015673915
79	0xbae2c813	-0.0017302058
80	0xbcdc1a4f	-0.026868014
81	0x3cffcc38	0.031225309
82	0x3d5dbf32	0.054137416
83	0x3d38e830	0.045143306
84	0xbc9cb6a2	-0.019130055
85	0xbac80033	-0.0015258848
86	0x3bbefc3b	0.005828408
87	0x3cf9a93c	0.030476205
88	0xbc8efaf5	-0.01745365
89	0x3be523b7	0.006992783
90	0x3cd2a3e4	0.025712915
91	0x3c292dcc	0.01032586
92	0xbd81f7ed	-0.06346116
93	0x3d17a2ed	0.037020613
94	0xbd89aff0	-0.067230105
95	0x3554b448	7.92385e-07
96	0x3358f4d7	5.05141e-08
97	0xbd870d62	-0.065943494
98	0xbd47bdf3	-0.048765134
99	0xbd673a79	-0.05645225
100	0xbd1fbd0f	-0.03899866
101	0x3d22d7f0	0.039756715
102	0xba96e455	-0.001151214
103	0xbc0c249f	-0.008553653
104	0xbd3d74ea	-0.046254076
105	0xbb933448	-0.0044923164
106	0xbad48e71	-0.0016216767
107	0x3cb645d3	0.022250092
108	0x3c5cdda8	0.013480581
109	0x3d1a93be	0.037738554
110	0xbd716095	-0.05893
111	0xbc857faf	-0.016296236
112	0xbd367675	-0.044546563
113	0xbc132ad5	-0.00898238
114	0xbb172ae5	-0.0023066339
115	0x3d8799f5	0.06621162
116	0x3c7de63c	0.015496787
117	0x3d8d6af6	0.06905167
118	0xb2ed2164	-2.7605616e-08
119	0xb729a024	-1.0110471e-05
120	0xbcb41960	-0.021984756
121	0xbbb134ac	-0.0054078903
122	0xbd7c2a72	-0.061563917
123	0x3d7749fb	0.060373288
124	0x3c6ad373	0.01433264
125	0x3a5e6fb1	0.0008485271
126	0x3cb02e82	0.021506552
127	0x3d8c0e66	0.06838684
128	0xbd5ffc28	-0.054683834
129	0x3d3a21e1	0.045442466
130	0xbcbee8eb	-0.023304423
131	0x3ca9078e	0.020633485
132	0xbd719071	-0.05897564
133	0x3c34331d	0.0109985145
134	0xbc8225b8	-0.015887126
135	0x3d14720e	0.036241584
136	0x3bc3ee1f	0.005979314
137	0xbd18705c	-0.03721653
138	0xbc429c9f	-0.011878162
139	0x3cebb524	0.028772898
140	0xbd038b4f	-0.032115277
141	0xb586d2d3	-1.0045136e-06
142	0xb47e0d72	-2.3660485e-07
143	0x3b0b2e94	0.002123748
144	0xbccc67f8	-0.02495192
145	0xbd967b2c	-0.07347712
146	0xbc678174	-0.014129985
147	0x3cbd2948	0.023090973
148	0xb5f024b9	-1.7892081e-06
149	0x3c509d1a	0.012732768
150	0x3cd59005	0.02606965
151	0x3c268db8	0.010165624
152	0x3d13e195	0.036103804
153	0xbcc811cd	-0.02442255
154	0x3cd83aa2	0.026395146
155	0xbd1aba91	-0.03777558
156	0xbcb1744f	-0.021661906
157	0xbd9cde90	-0.07659638
158	0x3c32d909	0.010916003
159	0xbbadc700	-0.0053032637
160	0x3cd0cf34	0.025489427
161	0xbc4c7b4f	-0.012480571
162	0x3cc9fb70	0.024656028
163	0xbd42a154	-0.047517136
164	0x31895524	3.996904e-09
165	0xb41fd769	-1.4886395e-07
166	0xbd00f284	-0.03148128
167	0xba054279	-0.00050834526
168	0xbccb8a96	-0.024846356
169	0xbbb1e3e2	-0.005428777
170	0x3c7124db	0.01471826
171	0xb3f111fe	-1.122571e-07
172	0xbbad1796	-0.0052823527
173	0x3c3110eb	0.010807256
174	0xbc0d6470	-0.008629903
175	0xbcd8b93f	-0.02645552
176	0x38d62e3c	0.00010212927
177	0xbc418823	-0.011812243
178	0xbc9796f7	-0.018504603
179	0x3c1737fd	0.009229657
180	0xbd8324e7	-0.06403523
181	0xbc89e05a	-0.016830612
182	0x3c0fd47a	0.008778686
183	0x3c15aa29	0.009134808
184	0x3d98f4dc	0.07468578
185	0x3ca92e79	0.020652043
186	0x3bff8960	0.007798359
187	0x3b4f35b1	0.0031617696
188	0x329f03d8	1.8511784e-08
189	0x3b36af12	0.0027875346
190	0x3d094f44	0.03352286
191	0x3c915cc3	0.017744428
192	0xbcb3dfb4	-0.021957256
193	0xbd02e00c	-0.03195195
194	0xb1bce41c	-5.497453e-09
195	0x3c5f40cf	0.013626291
196	0xbd7592f6	-0.059954606
197	0x3c644614	0.013932724
198	0xbd8610ec	-0.06546196
199	0xbd16e3c9	-0.036838327
200	0x3d681989	0.056664977
201	0x3c4b2f0c	0.012401354
202	0x3d08aad2	0.033366032
203	0xbd880bfe	-0.06642912
204	0x3d3bd1b4	0.045854285
205	0x3abd20a6	0.0014429286
206	0xbd29347b	-0.041309815
207	0x3c84b5d3	0.016199982
208	0xbc41a3d0	-0.011818841
209	0xbcc825ee	-0.024432149
210	0x3534b44e	6.7317603e-07
211	0xb3a0058a	-7.451588e-08
212	0xbc751ebd	-0.014960942
213	0xbd5bec84	-0.053692356
214	0xbce4d82c	-0.02793511
215	0xbc86a18c	-0.016434453
216	0xbc840cdf	-0.016119419
217	0xb74ba7bd	-1.21387975e-05
218	0x3d373dd2	0.04473669
219	0x3d7fa5df	0.062414046
220	0xbb4d7748	-0.0031351615
221	0x3dcf118d	0.101107694
222	0xbca0945c	-0.019601993
223	0xbc25d0df	-0.0101205995
224	0xbd513e33	-0.05108471
225	0x3cb0298a	0.021504182
226	0x3ca413f8	0.020029053
227	0x3d56d9e6	0.052453898
228	0x3d06f0a0	0.03294432
229	0xbca163c3	-0.01970089
230	0x3c434d7c	0.011920329
231	0x3a21f0fa	0.0006177571
232	0x3c752928	0.014963426
233	0xb3a4763d	-7.6583525e-08
234	0xb791a083	-1.7360091e-05
235	0x3bca2f56	0.0061701937
236	0xbcd3803a	-0.02581798
237	0xb933fbd4	-0.00017164584
238	0xbcc30f6b	-0.023811063
239	0x39e7f112	0.00044239365
240	0xbac8ed22	-0.001532946
241	0xbc9c25ae	-0.019060936
242	0xbccefa8e	-0.025265958
243	0xbc35010c	-0.011047613
244	0xbc63758f	-0.013883009
245	0xbc92dd9e	-0.017927941
246	0xbbc611c3	-0.006044598
247	0xbcb50fd1	-0.022102268
248	0xbd65e84e	-0.056129746
249	0xbd4b3391	-0.049609724
250	0x3cdeb43e	0.027185556
251	0x3d1960f1	0.037445966
252	0x3cea8356	0.028627079
253	0xbc80367e	-0.015650984
254	0x3d0337b2	0.032035537
255	0xbc82c9db	-0.015965393

lstm.weight_hh_l0 f4 [256, 64]
0	0x3d213d98	0.03936538
1	0xbc411720	-0.011785299
2	0xbb10a4f4	-0.0022070976
3	0x3c55d141	0.013050378
4	0xbc9dfb45	-0.019284854
5	0x3c6fa46d	0.0146266045
6	0xbc8338c6	-0.016018283
7	0x3b9f4b69	0.0048612845
8	0xbc693f8e	-0.014236344
9	0xbb2f36a6	-0.0026735454
10	0xbd19f291	-0.037584845
11	0xbd02bfdb	-0.03192125
12	0xbccb793c	-0.024838082
13	0xbcf7b521	-0.030237736
14	0x3c9a6dd6	0.018851202
15	0x3c8fd347	0.0175568
16	0xbbc25f4d	-0.005931771
17	0x3c67c95d	0.01414713
18	0xbcc7952b	-0.024363121
19	0x3d148bd4	0.036266163
20	0xbd16391a	-0.03667555
21	0x39a905e6	0.00032238587
22	0x3a0e8daf	0.00054379826
23	0xbcf9ce99	-0.030494021
24	0xbcb51149	-0.022102969
25	0x3b753aeb	0.003741915
26	0x3cc2f09b	0.02379637
27	0x3d401ba2	0.046901353
28	0x3c6d1ffa	0.014472956
29	0xbc0cfd50	-0.008605316
30	0x3d5574d5	0.052113373
31	0xbd0c17cc	-0.034202382
32	0xbc177e41	-0.00924641
33	0x3d201a32	0.03908748
34	0x3bcc6666	0.006237793
35	0x3ce6898c	0.02814176
36	0xbd299e6f	-0.04141086
37	0x3bfa7238	0.0076430105
38	0x3b936648	0.004498277
39	0xbbe3fcd2	-0.0069576288
40	0x3ca950ab	0.020668348
41	0x3cdcbef7	0.026946528
42	0xbbddb92b	-0.0067664585
43	0xbc0bd573	-0.008534777
44	0x3cc1cca7	0.023657156
45	0xbc7b5e0b	-0.015342246
46	0x3c533d7e	0.012893079
47	0xbd032a76	-0.032022916
48	0xbc8cdce0	-0.017195165
49	0xbd1ad58d	-0.037801314
50	0x3c8c65dd	0.017138416
51	0xbbbdf42e	-0.0057969308
52	0xbd0a8907	-0.033822086
53	0xbca54e24	-0.020178862
54	0x3c34907d	0.011020777
55	0xbc511187	-0.0127605265
56	0xbc95f903	-0.018307215
57	0x3c2aa59f	0.010415464
58	0xbce23605	-0.02761365
59	0xbcb3aae2	-0.02193207
60	0xbca7394e	-0.020413067
61	0xbc2e26b0	-0.010629341
62	0xbd35c589	-0.044377837
63	0xbd2f92a8	-0.04286447
64	0xbc229898	-0.0099240765
65	0x3b574ff1	0.0032854045
66	0x3ab20ba7	0.0013583795
67	0x3b35a6df	0.002771787
68	0x3b4483aa	0.0029985704
69	0xbadb1027	-0.0016713188
70	0x3b9a5adc	0.0047105383
71	0xba2c6a55	-0.0006577124
72	0x3b780189	0.0037842712
73	0xbb2665ca	-0.002539026
74	0x3c0a289b	0.008432533
75	0xbbebd6ea	-0.0071972506
76	0x3b0ed190	0.002179239
77	0x3ae2972a	0.0017287482
78	0xbac06182	-0.0014677497
79	0xba64d676	-0.0008729467
80	0x3c0714aa	0.008244673
81	0x3b519db5	0.003198487
82	0x3a8d9c8f	0.0010804104
83	0x3911351e	0.00013848065
84	0x3ba2dece	0.004970408
85	0x3a7a182d	0.00095403456
86	0xbb0b849e	-0.0021288763
87	0xbb6bc43f	-0.0035975126
88	0xbbc2fc09	-0.005950455
89	0x3b100245	0.002197401
90	0xbacf2486	-0.0015803732
91	0x3bc09446	0.0058770506
92	0xba265dec	-0.0006346393
93	0x3b84b923	0.0040503903
94	0x3b30ad57	0.0026958787
95	0x3a0c48ff	0.00053514534
96	0x3b7d27b8	0.003862841
97	0x3b88f98d	0.0041801394
98	0x3b04e8d8	0.0020280387
99	0xbbc0caa7	-0.005883533
100	0x3c5ef005	0.01360703
101	0x3a91b124	0.0011115414
102	0xbad5c518	-0.0016309349
103	0xbb1d8f50	-0.002404172
104	0xbb421f37	-0.0029620656
105	0x3acc7a4c	0.0015600412
106	0x3afa4a04	0.0019095545
107	0x3ae1f370	0.0017238688
108	0xbbe59a38	-0.0070069097
109	0xbb7d62a5	-0.0038663533
110	0xba67d409	-0.00088435464
111	0x3aa3742e	0.0012470537
112	0xba605a68	-0.00085583935
113	0xba2b90ec	-0.00065447274
114	0x3a3a573a	0.00071083347
115	0xbb20e2c1	-0.0024549218
116	0x3ba47630	0.005018972
117	0x3b00e93f	0.0019670276
118	0xbbbb3254	-0.0057127867
119	0xbb6a01dc	-0.0035706675
120	0xba925bf5	-0.0011166321
121	0xbaee2591	-0.0018169155
122	0xbab91a94	-0.0014122301
123	0xba6aa6a6	-0.0008951224
124	0x3c549103	0.012974027
125	0xbb165c94	-0.0022943364
126	0x3abe76c0	0.001453124
127	0x3b3a830e	0.0028459462
128	0x3a8b4f51	0.0010628497
129	0xbb0cffc0	-0.0021514744
130	0xbbefab2a	-0.0073141055
131	0xba38c019	-0.0007047668
132	0xbc38f889	-0.011289724
133	0xbc176285	-0.0092397975
134	0xbcdcfa48	-0.026974812
135	0x3c1df565	0.009641026
136	0x3c63fd86	0.013915425
137	0xbc2260ed	-0.009910804
138	0x3b1238ce	0.002231169
139	0xbcaa5815	-0.020793954
140	0xbc3b4511	-0.011430041
141	0xbc4ba97b	-0.012430544
142	0xbc258312	-0.01010205
143	0x3ca7ce42	0.020484094
144	0xbcb761a0	-0.022385418
145	0xbc5cfa28	-0.013487376
146	0xbd0556bb	-0.032553416
147	0xbc26450f	-0.010148301
148	0x3c3169dc	0.0108284615
149	0x3ca395b5	0.019968847
150	0x3c93ed38	0.01805745
151	0xbbc68f95	-0.006059597
152	0xbc8e8717	-0.0173984
153	0x392a58b9	0.00016245515
154	0x3c49952c	0.012303632
155	0xbcdebb7f	-0.027189014
156	0x3c3a7aa9	0.0113817835
157	0xbc456040	-0.012046874
158	0x3d053838	0.032524318
159	0x3bc18089	0.005905215
160	0xbc9798e6	-0.018505525
161	0x3c70725f	0.014675706
162	0x3b0a0ba9	0.002106408
163	0x3be83461	0.007086322
164	0x3c25c847	0.010118551
165	0xbc965921	-0.018353047
166	0x3c2d5897	0.0105802035
167	0x3c87f102	0.016594414
168	0x3c0db8ef	0.008650049
169	0x3d14925a	0.036272384
170	0xbb8bf15d	-0.004270716
171	0xbcb2971e	-0.021800574
172	0xbc901a0c	-0.017590545
173	0xbbe1bc8c	-0.0068889316
174	0x3c83aa53	0.016072428
175	0xbc42db02	-0.011893036
176	0xbcea4c8f	-0.02860096
177	0xbc93d1a5	-0.018044302
178	0x3bd21cd9	0.0064121303
179	0xba2c8268	-0.00065807113
180	0xbcbc6289	-0.022996204
181	0xba81a0f8	-0.0009889891
182	0x3c51fad7	0.012816153
183	0x3a9da3c9	0.0012026961
184	0xb996e9b5	-0.00028784355
185	0xbb8eb048	-0.0043545105
186	0xbcf0c8d5	-0.02939264
187	0xbbd6694a	-0.006543313
188	0xbc04f908	-0.008116014
189	0xbc3acac7	-0.011400885
190	0xbbee20a0	-0.007267073
191	0xbc5256c4	-0.012838069
192	0xbce11c8f	-0.027479438
193	0xba1ad27c	-0.00059059984
194	0xba87f1f8	-0.0010371795
195	0x3bf6f4e2	0.0075365165
196	0xbcb7f64b	-0.022456309
197	0xbcc403a5	-0.02392752
198	0xbbe672ac	-0.007032713
199	0x3b1d3631	0.00239886
200	0xbca4e77a	-0.020129908
201	0xbc328709	-0.010896453
202	0xbbd20791	-0.0064095934
203	0xba63b850	-0.00086868275
204	0x3c9207ed	0.017826045
205	0xb8de3e0b	-0.00010597341
206	0xbbc66a26	-0.0060551343
207	0x3ad1c5a3	0.0016004335
208	0xbbab98b6	-0.0052367104
209	0x3b2fb96e	0.0026813406
210	0xbbaebfbd	-0.0053329156
211	0x3c8a1836	0.016857248
212	0xbb8eec8e	-0.0043616956
213	0xbb2c082d	-0.002624999
214	0x3c2738fb	0.010206456
215	0x3c454afd	0.012041804
216	0x3c98cd3e	0.018652555
217	0xb9ad9e3c	-0.00033115025
218	0x3cf9f0eb	0.030510386
219	0x3c39b09b	0.01133361
220	0x3c97b32a	0.01851805
221	0x38444983	4.6798505e-05
222	0x3d056099	0.032562826
223	0xbcd4ace2	-0.025961343
224	0x3c7bf819	0.015378975
225	0x3c781673	0.015142071
226	0x3bbe85bc	0.005814282
227	0x3c883090	0.016624719
228	0xbc92e76e	-0.01793262
229	0xbbc68316	-0.006058107
230	0x3be0fdfc	0.006866215
231	0xbc7c3257	-0.015392861
232	0x3b8a3653	0.0042179017
233	0x3cf93559	0.030420946
234	0xba836e1d	-0.0010027323
235	0xbb637a24	-0.0034710253
236	0x3c52833d	0.012848672
237	0xbcbd8459	-0.023134397
238	0xb714d8dc	-8.871979e-06
239	0xbc96ce61	-0.018408956
240	0xbc2eaca5	-0.010661279
241	0xbcef182b	-0.029186329
242	0x3c0e8a7b	0.0087000085
243	0xbb85ee36	-0.004087235
244	0xbb9ce4c2	-0.0047880122
245	0x3ba2c7d1	0.0049676676
246	0x3addaeee	0.0016913095
247	0xbb816838	-0.0039491914
248	0xbb369011	-0.0027856866
249	0x3b3ea3e1	0.0029089379
250	0xba3ac3af	-0.0007124496
251	0x39f42a35	0.00046570753
252	0xbc018b51	-0.007906751
253	0xbbdfdf44	-0.0068320353
254	0xbbe75366	-0.0070595024
255	0x3c3016d9	0.010747635

lstm.bias_ih_l0 f4 [256]
0	0x3d0ef408	0.034900695
1	0x3c57072d	0.013124269
2	0xbd2497ad	-0.04018371
3	0x3caab36f	0.020837514
4	0x3d885dec	0.06658539
5	0xbc942698	-0.01808481
6	0xbb518ccb	-0.0031974788
7	0x3da0add5	0.07845656
8	0xbb5e7a05	-0.003394724
9	0xbc276643	-0.010217252
10	0x3dc6070c	0.09669313
11	0x3d3932eb	0.045214575
12	0x3d94817f	0.07251262
13	0x3d011576	0.031514607
14	0x3cdf8eef	0.027289836
15	0x3a232877	0.0006223986
16	0x3d89d27d	0.067296006
17	0x3d1c36fd	0.03813838
18	0xbc87502d	-0.016517723
19	0x3d45133c	0.048114046
20	0x3d25b4cc	0.040455624
21	0xbd1328d7	-0.03592762
22	0x3db5283a	0.08845563
23	0xbc7048ad	-0.014665765
24	0x3ccb193f	0.024792312
25	0x3ca2fc6f	0.01989576
26	0x3d4b4f22	0.049636014
27	0x3d934e08	0.07192618
28	0xbc277f2d	-0.010223192
29	0x3cf21887	0.029552711
30	0x3d8d2b54	0.0689303
31	0x3d145885	0.03621723
32	0x3cd53bee	0.026029553
33	0x3e032c5e	0.12809893
34	0xbcf50eaa	-0.029914219
35	0x3df373b1	0.11887301
36	0x3e15bb57	0.14622246
37	0x3d2d3ed9	0.042296264
38	0x3d0bcbef	0.034130033
39	0x3ce46255	0.02787892
40	0x3d53e281	0.051729683
41	0x3c56f6b4	0.013120342
42	0xbc8760c6	-0.016525637
43	0x3cd09d83	0.025465732
44	0x3d852f0a	0.065031126
45	0x3d22a788	0.03971055
46	0x3cdca2ac	0.026933037
47	0x3dc46b04	0.09590724
48	0x3bb1f4dc	0.005430801
49	0xbd25aee7	-0.040450003
50	0x3c9e68be	0.019337054
51	0x3d05f650	0.032705605
52	0x3caad85d	0.020855123
53	0x3c7bb605	0.015363221
54	0xbc1d4fc1	-0.009601534
55	0x3d7882c4	0.060671583
56	0xbcb2fe48	-0.021849766
57	0x3dbbb459	0.09165258
58	0x3d9e0954	0.07716623
59	0x3ce238e0	0.02761501
60	0x3dbbc7ac	0.09168944
61	0x3d292ac9	0.04130057
62	0x3d659ecc	0.056059644
63	0x3d287253	0.041124653
64	0x3d26ff72	0.040770955
65	0x3cc3ad36	0.023886304
66	0xbc116111	-0.00887324
67	0x3d1d0a98	0.03834018
68	0x3dba03c1	0.09082747
69	0x3dd7136a	0.1050175
70	0xbc99af19	-0.01876025
71	0x3d81e14d	0.06341801
72	0xbd0c7eb1	-0.03430051
73	0x3d652652	0.05594475
74	0x3dcee21e	0.10101722
75	0xbd0921cf	-0.033479508
76	0x3d5d4b53	0.054026913
77	0x3d347739	0.044059012
78	0x3d8373a4	0.06418541
79	0x3ce2f211	0.027703317
80	0x3dacfe7c	0.084469765
81	0x3d35792d	0.044305015
82	0x3de84aff	0.11342429
83	0x3dad5635	0.08463708
84	0x3d916f57	0.071013145
85	0x3cdddc36	0.027082544
86	0xbb110a6f	-0.0022131463
87	0x3d946851	0.07246459
88	0xbd1e56d1	-0.038657013
89	0x3d9f89a7	0.07789927
90	0x3de9d237	0.114170484
91	0x3cdc3ac5	0.026883492
92	0xbcaf3c18	-0.02139096
93	0x3d6446da	0.05573163
94	0xbd3604a6	-0.044438027
95	0xbcf655d4	-0.030070223
96	0x3ced9027	0.028999401
97	0x3daed2de	0.085363135
98	0x3d760cf6	0.060070954
99	0x3dab9fd2	0.08380093
100	0x3ce2fae8	0.027707532
101	0x3c3313ea	0.010930041
102	0x3ca587fc	0.020206444
103	0xbd0f313a	-0.034959055
104	0xbce2bf9d	-0.027679259
105	0xbc8fcffe	-0.017555233
106	0x3d398755	0.04529508
107	0x3d9ca1d7	0.07648056
108	0x3dbdc543	0.0926614
109	0x3d2d2a4d	0.04227667
110	0x3d1594ac	0.036518738
111	0x3db60442	0.08887531
112	0xbc3ed91c	-0.011648443
113	0xbba7052b	-0.0050970516
114	0x3cb85f62	0.02250642
115	0xbd31a6f2	-0.043372102
116	0x3da73fda	0.081664756
117	0x3c95b129	0.018272953
118	0xbccda495	-0.025102893
119	0x3da87ab4	0.08226529
120	0xbd3fcfc1	-0.04682899
121	0x3dc80328	0.09766227
122	0xbbaeb1a1	-0.0053312336
123	0x3c214bac	0.009844702
124	0x3e059815	0.13046296
125	0x3ce8e7b5	0.028430799
126	0x3c422cab	0.01185147
127	0x3da97c66	0.0827568
128	0x3e34fe6e	0.17675182
129	0xbd467929	-0.04845539
130	0xba93b78f	-0.0011269915
131	0x3df76562	0.12079884
132	0xbe1e4967	-0.15457688
133	0xbe362263	-0.17786555
134	0xbde7897e	-0.113055214
135	0xbc508387	-0.012726671
136	0xbdf8d9c9	-0.12150914
137	0xbe087cb8	-0.13328826
138	0xbdb76929	-0.089556046
139	0xbe27f3e5	-0.16401632
140	0xbde84ec7	-0.113431506
141	0xbe0dbec2	-0.138423
142	0x3dc48720	0.095960855
143	0x3bd596de	0.006518229
144	0xbe0dfffe	-0.13867185
145	0x3c1700c9	0.009216496
146	0xbe1433f2	-0.1447294
147	0x3defadff	0.11703109
148	0xb87b6c86	-5.9944134e-05
149	0x3ddb6c07	0.10713964
150	0x3e1e574c	0.15462989
151	0xbe2ae223	-0.16687827
152	0xbdcf29e2	-0.101154104
153	0xbd0309f0	-0.0319919
154	0x3e1dbe97	0.15404736
155	0x3e36a606	0.1783677
156	0x3c5ba419	0.013405823
157	0xbdeede62	-0.1166351
158	0x3e10c672	0.14138201
159	0xbe0ece71	-0.13945939
160	0x3dd188ab	0.102311455
161	0x3e33077e	0.17483327
162	0xbc52f034	-0.012874652
163	0x3d8551ed	0.06509767
164	0xbdf0931b	-0.11746808
165	0xbd02fd0a	-0.031979598
166	0x3e0d3435	0.13789447
167	0x3dde2290	0.10846436
168	0x3bbecdd0	0.0058228746
169	0x3d92de20	0.07171273
170	0x3cdea1c5	0.027176747
171	0xbe04a238	-0.12952507
172	0xbc1b8287	-0.009491569
173	0xbd1752ad	-0.03694408
174	0x3d6320bf	0.05545115
175	0xbe0d6105	-0.13806541
176	0xbe0c1e0e	-0.1368334
177	0xbe1ffddc	-0.15624183
178	0x3d8f675d	0.07002137
179	0x3cac9e03	0.02107144
180	0xbdcb1d0a	-0.09917648
181	0x3de859f7	0.113452844
182	0x3d55249d	0.05203687
183	0xbd08b42c	-0.03337495
184	0xbb08de1b	-0.0020884338
185	0x3d9a6cb2	0.07540263
186	0x3cf2f2ac	0.02965673
187	0xbdaa871b	-0.083265506
188	0xbc9f7d0d	-0.019468809
189	0xbd134c28	-0.0359613
190	0xbdcdd4ff	-0.100503914
191	0xbe2023d4	-0.15638667
192	0x3c12288e	0.008920802
193	0x3ccaa2b5	0.024735788
194	0x3d44dcc0	0.048062086
195	0x3da47808	0.08030707
196	0x3d12aa4c	0.03580694
197	0x3ded2bda	0.1158063
198	0x3dcb3ca6	0.09923677
199	0xbc69151e	-0.014226226
200	0x3db69981	0.08915997
201	0x3dec6203	0.11542132
202	0x3c8f9871	0.017528744
203	0xbc5d3b3e	-0.013502894
204	0x3caab31e	0.020837363
205	0xbcb177fa	-0.021663655
206	0xbd4d700a	-0.050155677
207	0x3cc14235	0.02359114
208	0x3ddaa75a	0.10676451
209	0x3d5cf1f1	0.05394167
210	0x3d3d96f6	0.046286546
211	0xbd350a96	-0.04419955
212	0xbd5f27e4	-0.054481402
213	0x3cff8819	0.031192826
214	0x3d84677a	0.06465049
215	0x3db7eb90	0.08980477
216	0xbc820841	-0.015873076
217	0x3d3c70a6	0.046005867
218	0x3dd65b80	0.10466671
219	0x3d924ce2	0.071435705
220	0x3d3bd191	0.045854155
221	0x3d9ec86f	0.077530734
222	0x3dc34c71	0.095360644
223	0x3d0cab66	0.034343146
224	0x3c2b89d7	0.010469875
225	0x3ded5e63	0.115902685
226	0xbc8bb2da	-0.017053057
227	0xbd19ca46	-0.03754642
228	0x3dbccb0a	0.09218414
229	0x3d67e222	0.05661214
230	0xbcae9e82	-0.021315817
231	0xbbe8b8ee	-0.0071021235
232	0xbcaa8a38	-0.020817861
233	0x3d502778	0.05081889
234	0x3d84113a	0.06448598
235	0x3df881bb	0.12134119
236	0x3de67b25	0.11253957
237	0xbd414226	-0.047182225
238	0xbcfa1ef4	-0.030532338
239	0xbd1927af	-0.03739136
240	0x3bb93388	0.005651895
241	0x3d895514	0.067056805
242	0xbd6bb3b0	-0.05754441
243	0x3d03cc3f	0.032177206
244	0xbd0db533	-0.034596633
245	0x3d8234f0	0.06357753
246	0x3d1f3335	0.038867194
247	0xbd45e675	-0.048315484
248	0x3d2be652	0.041967697
249	0x3c7dd57c	0.015492793
250	0x3d480fe9	0.048843298
251	0xbd533a97	-0.051569548
252	0x3d91c6a9	0.071179695
253	0x3d9a86bc	0.0754523
254	0x3c8682b7	0.016419752
255	0x3e059040	0.13043308

lstm.bias_hh_l0 f4 [256]
0	0x3ddc309e	0.107514605
1	0x3c5aadc7	0.013347096
2	0x3a42bc3d	0.00074285624
3	0x3d8cbed9	0.06872339
4	0x3d9287e2	0.07154824
5	0xbbce661b	-0.006298793
6	0xbc24e96f	-0.0100654205
7	0x3d92a4c0	0.0716033
8	0x3dc553d9	0.09635133
9	0xbca92e0c	-0.02065184
10	0x3d955928	0.07292396
11	0x3ce417fc	0.027843468
12	0x3d735c1f	0.059414025
13	0x3d3bffe1	0.045898322
14	0x3d941510	0.0723058
15	0x3d0c53ac	0.034259483
16	0x3d987762	0.074446455
17	0x3d4d3042	0.05009485
18	0x3d2d738e	0.04234653
19	0x3d9f8333	0.07788696
20	0xbcc2d919	-0.02378516
21	0x3c256f76	0.010097375
22	0x3d8de5ad	0.06928573
23	0xbcc0490f	-0.023472337
24	0x3def134e	0.11673604
25	0x3d8295a7	0.063762
26	0xbb0b8b19	-0.0021292625
27	0x3d672a4a	0.056436814
28	0x3cfedab4	0.031110145
29	0x3d8331cd	0.06405983
30	0x3d62771f	0.055289384
31	0x3dd9b55a	0.10630293
32	0x3d93d666	0.07218628
33	0x3d82a05a	0.06378241
34	0x3d036134	0.032075122
35	0xbcebddac	-0.028792225
36	0x3dd924d5	0.10602728
37	0xbcc623a1	-0.024186911
38	0x3c01e9c0	0.0079292655
39	0x3da67fce	0.081298456
40	0xbcc0e4a8	-0.023546532
41	0x3d124a96	0.035715662
42	0x3ccff80b	0.02538683
43	0x3dadc556	0.084849045
44	0x3d1d5ec2	0.038420446
45	0x3ce43864	0.02785892
46	0xbc710ea1	-0.01471296
47	0x3d333969	0.043755922
48	0x3d58bc3f	0.0529139
49	0xbae6b227	-0.0017600701
50	0x3d726712	0.059180327
51	0xbc80a77d	-0.015704865
52	0x3dbcda41	0.09221316
53	0x3d1e9322	0.038714536
54	0x3d306fba	0.0430753
55	0x3ce6c4aa	0.028169949
56	0x3d5193b4	0.05116625
57	0xbbbbb348	-0.005728159
58	0x3d8c4dde	0.068507895
59	0x3cc0f6db	0.02355521
60	0xbcabbb32	-0.020963285
61	0x3dd1ccd2	0.102441445
62	0x3d7819f0	0.06057161
63	0x3df4f711	0.11961187
64	0x3ca45f11	0.020064862
65	0x3c0cd2b3	0.0085951565
66	0x3cd1d1db	0.025612762
67	0x3d864992	0.06557001
68	0x3b2e64e9	0.002661044
69	0x3dc97e2d	0.09838519
70	0x3d93a83f	0.07209825
71	0xba8bd800	-0.0010669231
72	0x3d5e4a3a	0.054270007
73	0x3d73cf4d	0.05952387
74	0x3c00a3f2	0.007851588
75	0x3d15932a	0.0365173
76	0x3c149c8e	0.009070529
77	0x3e02a4ea	0.12758222
78	0x3d44ed0b	0.048077624
79	0x3d7a14fd	0.061055172
80	0xbc6feb50	-0.014643505
81	0xbd32eecf	-0.043684777
82	0xbd09d35e	-0.03364884
83	0xbc708f4a	-0.0146826
84	0x3db41a72	0.087941065
85	0x3d16c731	0.036811057
86	0x3c6c250b	0.014413129
87	0x3cd63a52	0.026150856
88	0x3d136301	0.03598309
89	0x3da3f79f	0.08006214
90	0x3d26bf17	0.04070958
91	0x3d9f2f6b	0.07772716
92	0x3dba7f32	0.09106292
93	0xbcde7c36	-0.027158838
94	0x3d22b3d2	0.03972227
95	0x3d6fb421	0.058521394
96	0x3dad1890	0.084519506
97	0x3d9df87d	0.07713411
98	0x3c807105	0.015678892
99	0x3deca419	0.11554737
100	0x3de54aac	0.11195883
101	0xbcc7c414	-0.02438549
102	0x3d8cd998	0.0687744
103	0x3cd346d4	0.02579061
104	0xbb28e616	-0.0025771908
105	0x3df5dd23	0.12005069
106	0x3b812f32	0.0039423937
107	0x3ce8fefd	0.0284419
108	0xbcb52f11	-0.02211717
109	0x3d8e92f5	0.069616236
110	0x3d2a7ce6	0.04162302
111	0x3cb4c5c3	0.022066956
112	0xbca6a1f1	-0.020340892
113	0x3db44355	0.08801905
114	0xbc629b20	-0.01383093
115	0x3d83cb41	0.06435252
116	0x3dc6d087	0.09707742
117	0x3cbb7461	0.022882642
118	0x3d2121b6	0.03933879
119	0x3add9ac8	0.001690709
120	0xbd4c9eb6	-0.049956046
121	0x3c75d008	0.015003212
122	0x3dc839a7	0.09776621
123	0x3d9329f7	0.071857385
124	0x395a0cea	0.00020794911
125	0x3de3d4ee	0.111245975
126	0x3dbf7efe	0.09350394
127	0x3dcd7fff	0.10034179
128	0x3de13ca0	0.109978914
129	0x3cf16932	0.029469106
130	0xbdc1b45c	-0.09458229
131	0x3d28c465	0.04120292
132	0x3d50873f	0.05091023
133	0xbe2fae06	-0.17156228
134	0xbbeb8db8	-0.007188525
135	0x3dd090e0	0.10183883
136	0xbe16d39a	-0.14729157
137	0xbd8161d0	-0.063174844
138	0xbe27b0e4	-0.16376072
139	0xbc8c2f48	-0.01711239
140	0xbd900e96	-0.07034032
141	0xbde435be	-0.11143063
142	0x3d789923	0.060692918
143	0x3dbd5a03	0.09245684
144	0xbcbdcd8a	-0.023169298
145	0x3da9ffe9	0.08300764
146	0xbd6fe37a	-0.058566548
147	0xbbd3004c	-0.0064392444
148	0xbe0daf72	-0.13836458
149	0xbc0f74ca	-0.008755872
150	0x3d5b58c2	0.053551443
151	0xbdd67c98	-0.10472983
152	0xbe1d05b6	-0.1533421
153	0x3e10cb83	0.14140134
154	0x3de442d3	0.11145558
155	0xbc11e59a	-0.008904839
156	0x3e040f8e	0.12896559
157	0x3ca15767	0.019694997
158	0x3dc12dc7	0.094325595
159	0x3c6b94cc	0.014378738
160	0x3cf4e10e	0.02989247
161	0x3e166502	0.14686969
162	0x3d6c451b	0.05768309
163	0x3e1c671e	0.15273711
164	0xbe1c0d04	-0.1523934
165	0xbdc460ba	-0.09588762
166	0xbb986136	-0.0046502603
167	0x3ced0dc8	0.028937235
168	0x3df24a13	0.11830535
169	0x3e1805a5	0.14845903
170	0xbdf43e05	-0.11925892
171	0xbdcf607a	-0.10125823
172	0x3e34c1b3	0.17652015
173	0xbd7eef64	-0.06224002
174	0x3dce3cfc	0.100702256
175	0xbced4945	-0.028965602
176	0xbcfd1480	-0.030893564
177	0xbe3f1fa6	-0.18664417
178	0x3c9b2af6	0.018941384
179	0xbddf6592	-0.10908045
180	0xbe31d85a	-0.17367688
181	0x3d6d1763	0.05788363
182	0x3bfd5147	0.0077306363
183	0xbd80fb3e	-0.06297921
184	0xbc6e131a	-0.014530921
185	0x3daa9754	0.08329645
186	0xbe2ab772	-0.16671541
187	0xbdad559e	-0.08463596
188	0xbe310243	-0.17286019
189	0xbdaffa99	-0.085927196
190	0xbe117287	-0.14203845
191	0xbd9f2d6e	-0.07772337
192	0x3d57de89	0.05270246
193	0x3d13eda1	0.036115292
194	0xbc61c6b1	-0.013780282
195	0xbd477961	-0.04869974
196	0x3d88a2f1	0.066717036
197	0x3e19e3f1	0.15028359
198	0x3dc89689	0.09794337
199	0x3c334308	0.010941274
200	0x3cb37437	0.021906001
201	0x3ae36ff0	0.0017352086
202	0xbc882e0d	-0.016623521
203	0xbd3a8e9b	-0.045546155
204	0x3e0488d4	0.12942821
205	0x3d6d4107	0.057923343
206	0x3da0079e	0.07813953
207	0x3d2d1378	0.042254895
208	0x3c9dc229	0.019257622
209	0x3d431e53	0.04763634
210	0xbce97f97	-0.028503222
211	0x3db9d2c2	0.09073402
212	0xbd017528	-0.03160587
213	0x3cc5ff50	0.024169594
214	0x3bd90824	0.006623285
215	0x3e03d33d	0.1287355
216	0x3d324e0b	0.04353146
217	0xbce4fd00	-0.027952671
218	0x3d896c2c	0.06710085
219	0x3db85f06	0.09002499
220	0x3daf9265	0.085728444
221	0x3d6e054b	0.058110517
222	0x3df1fd32	0.11815871
223	0x3c4dcd35	0.012561132
224	0x3da2279d	0.07917712
225	0x3dc90b20	0.09816575
226	0xbd345d60	-0.04403436
227	0xbd150e42	-0.03639055
228	0x3d7ef193	0.062242102
229	0x3c15adcb	0.009135674
230	0xbc988cd9	-0.018621849
231	0x3db270d1	0.08712924
232	0xbcf83fbb	-0.030303827
233	0x3d1c6ad8	0.03818783
234	0x3cfdf0c6	0.030998599
235	0xbd287834	-0.04113026
236	0x3d958731	0.07301176
237	0x3ced1e73	0.028945183
238	0x3d12fb57	0.035884228
239	0x3cda0f12	0.026618514
240	0x3d5b9d3f	0.05361676
241	0x3d32f7ac	0.04369323
242	0x3d8e82ab	0.06958517
243	0x3d2bd2c9	0.041949067
244	0x3db9fad8	0.09081048
245	0x3db0fa18	0.086414516
246	0x3d8e317f	0.069430344
247	0x3d0fb01a	0.035080053
248	0xbd764d8a	-0.06013254
249	0x3dc6a727	0.096998505
250	0x3d1dafa4	0.038497582
251	0x3d4784c2	0.048710592
252	0x3e1ed884	0.15512282
253	0x3d18a16e	0.037263326
254	0x3d2ca0d4	0.042145565
255	0x3cf6aa68	0.030110553

win_fc.weight f4 [64, 178]
0	0x3bf893a2	0.0075859586
1	0xbbe7b2dd	-0.0070708827
2	0xbc45748e	-0.012051715
3	0x3b511000	0.0031900406
4	0xbc89ba53	-0.01681248
5	0xbc4ac3bf	-0.012375771
6	0xbc64a427	-0.013955153
7	0xbabe9af0	-0.0014542025
8	0xbbc4ef36	-0.0060099615
9	0xbce8650d	-0.028368497
10	0xbd07051c	-0.032963857
11	0xbc7ce98e	-0.015436543
12	0xbcb3d741	-0.021953227
13	0xbcd3e49b	-0.025865844
14	0xbb0906f5	-0.0020908688
15	0x3c12d6ba	0.008962328
16	0xbd011176	-0.031510793
17	0x3cc87932	0.024471853
18	0xbcf1a2ff	-0.029496668
19	0x3910ab39	0.00013796696
20	0xbc8be077	-0.017074807
21	0x3beed64e	0.0072887307
22	0x3ca1a678	0.019732699
23	0xbd0695f4	-0.03285785
24	0xbb794b98	-0.0038039442
25	0x3bd311b1	0.006441318
26	0xba3f3344	-0.0007293711
27	0x3cb2618a	0.021775026
28	0x3cc64516	0.024202865
29	0x3c0cb1c8	0.008587308
30	0x3c369937	0.011144928
31	0xbc5943a4	-0.013260756
32	0x3cbd22e9	0.023087936
33	0x3cbf9f15	0.023391286
34	0x3ccd6ae4	0.025075383
35	0x3cbe8f6d	0.02326175
36	0xbb841b11	-0.004031547
37	0x3a9d7618	0.0012013344
38	0x3c579ff7	0.013160697
39	0x3c867e90	0.016417772
40	0x3cdacc2b	0.026708683
41	0x3cdaf838	0.026729688
42	0xbc087439	-0.008328491
43	0xbcf01798	-0.029308125
44	0x3cd7df31	0.026351543
45	0xbc8e119f	-0.017342387
46	0x3a8c12f8	0.0010686805
47	0xbb564c9f	-0.0032699478
48	0xbcbe6ebd	-0.023246164
49	0x3ace799e	0.0015752797
50	0x3c5f543d	0.013630924
51	0xbc40b9e8	-0.0117630735
52	0xbc9fbaf1	-0.01949832
53	0x3a9e23b2	0.0012065081
54	0x3b2f79d7	0.0026775503
55	0xbc2d6d4b	-0.0105851395
56	0xbcb8c425	-0.022554467
57	0x3c5670de	0.013088433
58	0xbc960217	-0.018311543
59	0xbb8da07b	-0.0043221093
60	0x3b3cb41e	0.0028793882
61	0xbc89bbd5	-0.016813198
62	0xbc600703	-0.013673547
63	0xbd116a87	-0.035501983
64	0x3ce221a6	0.027603935
65	0x3c4c0d9e	0.012454418
66	0xbc966306	-0.018357765
67	0x3c889725	0.016673634
68	0xbbdb3a24	-0.0066902805
69	0xbbffe468	-0.0078092106
70	0xbc042fbd	-0.008068022
71	0xbb411c92	-0.0029466492
72	0xbcac66b8	-0.021045074
73	0xbc8a530e	-0.016885307
74	0xbc59d758	-0.013295971
75	0xbc5b8c95	-0.013400217
76	0xbc636492	-0.013878958
77	0xbcbd4132	-0.023102377
78	0x3ca44341	0.0200516
79	0x3ca346e2	0.01993126
80	0xbc19f12d	-0.00939588
81	0x3b031ef4	0.0020007463
82	0xbac2c2db	-0.0014859097
83	0xba17e573	-0.00057943835
84	0x3ae69562	0.0017592127
85	0x3c8ea4ef	0.01741263
86	0xbb9df971	-0.0048209955
87	0x3c90d91b	0.017681649
88	0xbc0327ef	-0.008005126
89	0x3c99193b	0.018688789
90	0x3c999055	0.01874558
91	0xbc92abe0	-0.017904222
92	0x3ba67559	0.005079907
93	0xbcb91b8e	-0.022596147
94	0x3ce0282a	0.027362902
95	0xbc8997a3	-0.016795939
96	0x3c7d3bf7	0.015456191
97	0x3d1a7161	0.037705783
98	0x3a46c3cb	0.0007582276
99	0xbbac1c47	-0.0052523944
100	0xbb0c1ce0	-0.0021379516
101	0xbc4ea134	-0.012611676
102	0x3ca8d5f6	0.020609837
103	0x3c409a0e	0.0117554795
104	0x3cbec29c	0.023286156
105	0x3bc6cdd1	0.0060670157
106	0xbc8ef98e	-0.017452981
107	0xbc382f83	-0.011241796
108	0xbc87190d	-0.016491437
109	0xbc2a3410	-0.010388389
110	0x3c3ec241	0.011642993
111	0xbc95403c	-0.018219106
112	0x3a9a246f	0.0011760126
113	0xbb96d8c5	-0.0046034777
114	0x3b952f79	0.0045527783
115	0x3cc01dd7	0.023451729
116	0xbb698cc6	-0.0035636886
117	0x3b346a8a	0.0027529323
118	0x3c9b97e2	0.018993322
119	0x3c64647f	0.013939976
120	0xbbbebaed	-0.005820623
121	0x3c13a1a0	0.009010702
122	0xbd204590	-0.03912884
123	0xbc7646d6	-0.015031537
124	0xbbf1b2c1	-0.0073760455
125	0x3c10f5cb	0.008847664
126	0x3bf999fd	0.007617234
127	0xbc8fe627	-0.0175658
128	0x3d2f1317	0.042742815
129	0x3db17f22	0.08666827
130	0x3d88902f	0.06668126
131	0x3d221f1d	0.039580453
132	0xbd6a779f	-0.057242986
133	0x3d3eb07a	0.04655502
134	0x3d233c3f	0.039852377
135	0x3d852403	0.06501009
136	0x3ccb1015	0.024787942
137	0x3b625af1	0.0034539069
138	0x3a4206a1	0.00074015005
139	0xbc3914bd	-0.011296448
140	0xbc01bd18	-0.007918619
141	0xbcdc34b1	-0.026880594
142	0x3d890d27	0.06691962
143	0xbbe46727	-0.0069703045
144	0x3c5f1779	0.013616436
145	0xbcfa7a56	-0.030575912
146	0x3d80ebb6	0.06294958
147	0xbb5ee3bb	-0.003401025
148	0xbbbf7709	-0.0058430475
149	0x3cf963be	0.030443069
150	0x3c510e3c	0.012759741
151	0xbcb05ca2	-0.021528546
152	0xbc727f61	-0.014800877
153	0xba97e058	-0.0011587245
154	0x3d4aa32b	0.049472015
155	0x3c5514dc	0.013005462
156	0xbc90bf5f	-0.017669378
157	0x3c84efb2	0.016227577
158	0x3cc6cbd1	0.02426711
159	0xbb0897b1	-0.0020842368
160	0x3cd16180	0.025559187
161	0x380f2c68	3.4135213e-05
162	0xbd68a117	-0.056794252
163	0x3da2a5f0	0.07941806
164	0x3d143cb7	0.036190715
165	0x3cee44d0	0.029085547
166	0xbd07d03c	-0.033157572
167	0x3cc9ca8a	0.024632711
168	0x3d4d47ec	0.05011742
169	0x3d4f1cf0	0.050564706
170	0xbcc2e65c	-0.023791485
171	0xbc12fe04	-0.008971695
172	0xbd6dbe96	-0.058043085
173	0xbbf6fa31	-0.0075371494
174	0x3bbd66b3	0.005780065
175	0xb6488e54	-2.9885168e-06
176	0xb12e4e50	-2.5364848e-09
177	0x3ba62969	0.0050708544
178	0x3c0a1a44	0.008429114
179	0xb95d8b59	-0.00021128113
180	0xbc9767bf	-0.018482087
181	0x3c59fb8a	0.0133046005
182	0xbbb1711f	-0.0054150964
183	0xbca248cd	-0.019810105
184	0xbb3543e4	-0.0027658874
185	0x3b0c7b8c	0.0021435944
186	0xbc9d53f4	-0.019205071
187	0x3bc5efc2	0.0060405442
188	0xbc102a32	-0.008799123
189	0xbb8f52c9	-0.0043738824
190	0xbb235326	-0.0024921387
191	0x3b2d98fe	0.0026488896
192	0x3ab0370e	0.0013444142
193	0x3bc326f5	0.005955572
194	0x3b8e340f	0.004339702
195	0x3b5417f7	0.0032362917
196	0x3b13a766	0.0022530197
197	0x3c22a04f	0.009925916
198	0x3bde01c7	0.006775114
199	0x3bea6214	0.007152805
200	0x3af8b0ec	0.0018973625
201	0x3b9aa8cc	0.004719829
202	0x3abc629d	0.0014372651
203	0xb96b3cf8	-0.00022434059
204	0xbc10a82c	-0.008829158
205	0xbc32065d	-0.010865775
206	0x3c03e805	0.008050923
207	0xbbe12871	-0.006871276
208	0xbbc106e6	-0.005890715
209	0xbb52a1fd	-0.003214001
210	0xbc0551f8	-0.008137219
211	0xbb793abc	-0.0038029393
212	0xbb9b5057	-0.004739802
213	0x3c789628	0.015172519
214	0xbc8cfb33	-0.017209625
215	0xbbd76a88	-0.006573979
216	0x3c441e0c	0.011970054
217	0x3c3fd8b3	0.01170938
218	0x3c4f0435	0.01263528
219	0x3c2b5cbc	0.010459121
220	0xbb5837b4	-0.0032992186
221	0xbcbdbf55	-0.023162523
222	0xbbf4d45e	-0.007471605
223	0x3bb5f92b	0.005553385
224	0x3bc8962a	0.0061214166
225	0x3c24c39a	0.010056401
226	0xbbc35df5	-0.0059621283
227	0x3a7824a3	0.00094659085
228	0x3a779e4c	0.00094458903
229	0x3b9ba0b2	0.004749381
230	0xbc235ca4	-0.009970818
231	0x3a6af0ae	0.00089622557
232	0x3bbab331	0.005697631
233	0xbc3a5125	-0.011371885
234	0x3b4d7949	0.003135281
235	0xbca8d688	-0.020610109
236	0x3c48925a	0.012241924
237	0xba932971	-0.001122756
238	0xbc5866d8	-0.013208114
239	0x3bab1bc9	0.005221818
240	0xbb7e57f4	-0.0038809748
241	0xb9df6b58	-0.00042613852
242	0xbc7cc40f	-0.015427603
243	0xbbacfd15	-0.005279193
244	0x3b3bd2ee	0.002865966
245	0x3c195b91	0.00936021
246	0xbb6616a0	-0.00351087
247	0xb9a9ea02	-0.0003240854
248	0xbc1ae238	-0.009453349
249	0xba3c0fa1	-0.000717396
250	0xbc065831	-0.008199737
251	0xbb7ea97a	-0.003885834
252	0xbb114da5	-0.0022171524
253	0xbba47b6c	-0.005019596
254	0xbb9b9eef	-0.004749171
255	0xbc76123b	-0.015018995

win_fc.bias f4 [64]
0	0x3cb93b6d	0.022611344
1	0x3cf37471	0.02971861
2	0x3c02fb3e	0.007994471
3	0x3d8d2ac4	0.068929225
4	0x3d73f636	0.059560977
5	0xbaf39888	-0.0018584887
6	0xba3810fa	-0.00070215727
7	0xbd18169c	-0.037130937
8	0x3d3c2a0e	0.045938544
9	0xbad6b380	-0.00163804
10	0x38ae3285	8.3063765e-05
11	0x398dd302	0.0002705083
12	0xbc080fbb	-0.008304532
13	0x3d4407f9	0.047859166
14	0xbb86ca11	-0.0041134437
15	0xbce2e370	-0.027696341
16	0x3c025f14	0.007957239
17	0x3c128720	0.008943349
18	0x3d8d9e2b	0.06914934
19	0xbcb00feb	-0.021491965
20	0xbc8f354f	-0.017481474
21	0xb9a8542d	-0.00032106173
22	0x3d9c866a	0.07642825
23	0xbc55cc0e	-0.013049139
24	0xbcc967a4	-0.024585553
25	0xbcc5dd3d	-0.024153346
26	0xbd928a9f	-0.07155346
27	0x39ab8209	0.00032712545
28	0xbafeb3fe	-0.0019432304
29	0x3c64d9e5	0.013967966
30	0xbcfb2cd0	-0.030661017
31	0xb719b317	-9.161208e-06
32	0x3d201493	0.03908212
33	0x3c97a4dc	0.018511228
34	0xbb692cbc	-0.0035579642
35	0x3d759a81	0.0599618
36	0x3d854ce8	0.06508809
37	0xbc7af9ed	-0.015318376
38	0x3d024e73	0.031813096
39	0xba81f27f	-0.0009914188
40	0x3d0279e7	0.031854536
41	0xbcd90ff5	-0.026496867
42	0xbd16022e	-0.036623172
43	0x3ce85417	0.02836041
44	0xbc9b354e	-0.018946316
45	0x3d8033e0	0.06259894
46	0x3c3622b4	0.011116672
47	0x3caefbc4	0.021360286
48	0xbc2d448b	-0.010575424
49	0xbce24e4c	-0.027625225
50	0x3c9f70e9	0.01946302
51	0x3ba64ea7	0.005075294
52	0x3b309760	0.0026945695
53	0x3d20eb55	0.03928693
54	0x3d404ee9	0.046950255
55	0x3bc3d427	0.0059762183
56	0xbc89bb11	-0.016812833
57	0xbd3017f3	-0.04299159
58	0xbc42d606	-0.0118918475
59	0x3d054ff9	0.03254697
60	0xbd2d2e50	-0.042280495
61	0xbbeb9e94	-0.007190535
62	0xba6c720e	-0.0009019681
63	0xbc98ed9e	-0.018667992

win_head.weight f4 [1, 64]
0	0x3d8d9164	0.06912497
1	0xbd2523bd	-0.040317286
2	0x3c82772a	0.015925962
3	0x3dbc346b	0.091896854
4	0x3d717b6d	0.0589556
5	0xb9303b88	-0.00016806845
6	0x3c27fd87	0.010253317
7	0xbcd7f2b6	-0.02636085
8	0x3dab872b	0.083753906
9	0x3b5c1730	0.0033583157
10	0x3da9c29f	0.08289074
11	0x3d66ff88	0.056396037
12	0xbd1b97a6	-0.03798642
13	0x3d848f71	0.06472672
14	0xbd782d8a	-0.060590304
15	0x3de4d2d5	0.111730255
16	0xbdab3f1c	-0.083616465
17	0xbccfc903	-0.025364405
18	0x3e07785a	0.13229504
19	0xbd8fabfc	-0.07015225
20	0x3d23420a	0.0398579
21	0x3b0566a6	0.0020355373
22	0x3e157363	0.14594798
23	0xbd776941	-0.060403112
24	0xbce39b51	-0.027784022
25	0x3df41965	0.11918906
26	0xbd69b8cc	-0.057061
27	0x3bd7aca9	0.006581862
28	0x3cc6c00d	0.024261499
29	0x3cb0254e	0.021502163
30	0xbd83701c	-0.064178675
31	0xb815bfdd	-3.5703055e-05
32	0x3d6eaf15	0.05827244
33	0xbd7163b9	-0.058932994
34	0x3b2bc348	0.0026208926
35	0x3e0982ae	0.13428757
36	0x3db1cfb4	0.08682194
37	0x3daba8c8	0.08381802
38	0x3d150092	0.036377497
39	0x3ddcf64d	0.10789166
40	0xbd53758a	-0.051625766
41	0xbdbec59c	-0.09315035
42	0xbd9d8254	-0.07690874
43	0x3c950e96	0.018195432
44	0xbda8df36	-0.08245699
45	0x3ddcc44c	0.10779628
46	0x3d12ab8c	0.03580813
47	0x3d01a59c	0.031652078
48	0x3df8d07b	0.121491395
49	0xbd98eec1	-0.07467414
50	0x3d49c30d	0.04925828
51	0x3c960772	0.018314097
52	0xbd93f46d	-0.07224355
53	0x3daba8c9	0.083818026
54	0x3d2c7b5d	0.042109836
55	0xbd354ff9	-0.04426572
56	0xbdf915ac	-0.12162337
57	0xbd999189	-0.07498462
58	0xbdc7e883	-0.09761145
59	0xbdacaa63	-0.08430936
60	0xbd6a7af5	-0.057246167
61	0xbd306c0b	-0.043071788
62	0xbd7db937	-0.061944213
63	0xbcbd6ed3	-0.023124134

margin_fc.weight f4 [64, 179]
0	0xbb232e79	-0.0024899526
1	0xb9fca514	-0.00048188178
2	0x3b33829b	0.002739108
3	0xbbb0b092	-0.0053921426
4	0xbc4c2134	-0.012459088
5	0x3a25ec07	0.00063294213
6	0x3bae552a	0.005320211
7	0xbb32ffa0	-0.002731301
8	0x3b227549	0.0024789146
9	0xbc0e7226	-0.008694207
10	0x3c20b93c	0.009809788
11	0x3c0e283f	0.008676588
12	0x3b8fad96	0.0043847067
13	0x3c1643ec	0.009171467
14	0xbbd5638c	-0.006512111
15	0xbbd201f8	-0.006408926
16	0x3c26a295	0.0101705985
17	0x3b01c231	0.0019799585
18	0x3bdb56a6	0.006693679
19	0xbba4c3f8	-0.005028244
20	0x3baf75ce	0.0053546196
21	0xbc28d55f	-0.010304778
22	0x3c25fdac	0.010131281
23	0x3b94c904	0.0045405645
24	0xbc1dc5eb	-0.009629707
25	0xbc136903	-0.008997205
26	0x3bf5cccf	0.0075012217
27	0xbbd2fa54	-0.006438533
28	0x38db1c4c	0.000104480045
29	0x3c1e35a0	0.00965634
30	0x3b8c44d3	0.0042806654
31	0x3b5d5c8e	0.003377709
32	0xbbc5c7e8	-0.0060357936
33	0xbc2d4ab2	-0.010576891
34	0xbb04a95c	-0.0020242548
35	0x3a3c6090	0.000718602
36	0xbb4b7f2e	-0.0031051147
37	0x3ad7c420	0.0016461648
38	0xbad22778	-0.0016033491
39	0xbc138df9	-0.009006017
40	0xbbdf79fe	-0.0068199625
41	0xb9de7b57	-0.00042435035
42	0x3c265cad	0.010153932
43	0xbc17bc11	-0.009261147
44	0x3b038ac2	0.002007172
45	0xbb009759	-0.001962146
46	0x3b610a15	0.0034338285
47	0xbb96aa44	-0.004597934
48	0xbbcd4ca2	-0.006265239
49	0x3bedf9e9	0.0072624576
50	0x3b08c600	0.002086997
51	0x3bccb878	0.0062475763
52	0x3c675a7e	0.014120696
53	0x3ae2ae4b	0.0017294375
54	0x3a715bb4	0.0009207085
55	0x3a0737ec	0.00051581743
56	0xbba113b9	-0.004915681
57	0xbbaa4a32	-0.005196833
58	0x3c136253	0.00899561
59	0x3ab28b99	0.0013621926
60	0x3aab8953	0.001308719
61	0x3b6c7a15	0.0036083509
62	0x3b9eb5cf	0.0048434506
63	0x3bb39eb5	0.005481566
64	0xbb92e06d	-0.00448232
65	0xba02f774	-0.000499598
66	0x3baeae03	0.0053308024
67	0xb98beef4	-0.0002669018
68	0xbb0ff97c	-0.0021968773
69	0xbac43bbe	-0.0014971418
70	0xbba9d5df	-0.005182966
71	0x3b07f38c	0.002074453
72	0x3be46151	0.006969609
73	0x3b8ce141	0.0042993133
74	0xbb4b7e4d	-0.0031050623
75	0xbb19bf6c	-0.0023460044
76	0x3a81c4cd	0.000990057
77	0x3bb11839	0.005404499
78	0xbbdad945	-0.0066787326
79	0xbb87a7ab	-0.0041398606
80	0xbaeb7f8a	-0.0017967087
81	0x3b6fa173	0.0036564737
82	0xbc0db824	-0.00864986
83	0xbbb3950d	-0.0054804147
84	0x3a897c1f	0.0010489261
85	0xbbe16aca	-0.0068791853
86	0xba11edc6	-0.0005566742
87	0x3b8f0344	0.004364403
88	0x3b0e75ee	0.0021737772
89	0xbbf90398	-0.0075993054
90	0xba8a877d	-0.0010568943
91	0xbaf4d0dc	-0.0018677968
92	0x3bce191c	0.0062896144
93	0x3c48cc67	0.012255765
94	0x3c390241	0.011292041
95	0xbb2ad851	-0.0026068876
96	0xbba3d8e7	-0.005000222
97	0x3afd9108	0.0019345591
98	0x39d73db7	0.00041053977
99	0x3b29eea9	0.0025929606
100	0x3b073b36	0.0020634658
101	0x3b3c9f64	0.0028781528
102	0xbbd7c6f3	-0.006584996
103	0xbafc39f6	-0.0019243348
104	0x3b1579a2	0.0022808095
105	0x3a7b666a	0.0009590151
106	0x3b9c3cbd	0.0047679828
107	0x3b08a569	0.0020850545
108	0x3b9e0050	0.0048218146
109	0x3c2389af	0.009981557
110	0xbbaddfd8	-0.0053062253
111	0x3b38042e	0.0028078663
112	0xbb98b5ea	-0.0046603577
113	0x3beeb9b3	0.0072853207
114	0xbb0af75f	-0.0021204574
115	0xb9eaf04c	-0.00044810993
116	0xbbcaf9ff	-0.0061943526
117	0xbb36cae1	-0.0027891921
118	0xbbb41da0	-0.0054966956
119	0xbb5326c4	-0.003221915
120	0xbbd085bd	-0.006363599
121	0xbc2e04e1	-0.01062128
122	0x3bada391	0.0052990397
123	0xba418c7f	-0.0007383301
124	0x3c891cd3	0.016737377
125	0x39925345	0.0002790933
126	0x3bce2922	0.0062915245
127	0x3ac46156	0.0014982622
128	0xbb4a6917	-0.0030885392
129	0xbcdc94fa	-0.026926506
130	0x3c2fbb60	0.010725826
131	0x3b4e33ce	0.0031463983
132	0x3c265fbc	0.010154661
133	0xbb5cd3d3	-0.0033695593
134	0x3cdb8ec1	0.026801469
135	0x398536d2	0.0002540858
136	0xbcc52056	-0.02406327
137	0xbca9ea2f	-0.02074155
138	0xbc53cb40	-0.012926877
139	0xbbf363a0	-0.0074276477
140	0x3b0989c8	0.0020986665
141	0x3a31fcd8	0.0006789691
142	0xbc1edd67	-0.009696341
143	0xbc6a4b20	-0.014300138
144	0xbbf4cfce	-0.0074710613
145	0xbbd20a9b	-0.0064099557
146	0xbc41e70c	-0.011834871
147	0x3b7d1807	0.0038619058
148	0x3d061764	0.03273715
149	0xbc992d10	-0.018698245
150	0x3ca1c1ef	0.019745795
151	0x3b49045d	0.0030672767
152	0xbc7318cc	-0.014837455
153	0xbc715e20	-0.014731914
154	0xbc924c11	-0.017858537
155	0x3b7e8d4c	0.0038841544
156	0xbcc77e7a	-0.0243523
157	0x3c688c4a	0.014193604
158	0xbafa93ae	-0.0019117498
159	0xbc81e4d2	-0.01585618
160	0x3cbbbc52	0.022916947
161	0x3cee52de	0.029092249
162	0x3ca52c77	0.020162804
163	0x3c4de7c6	0.012567466
164	0x3c875e6a	0.016524512
165	0xb9439d77	-0.0001865531
166	0x3c9276c6	0.017878901
167	0x3c0b93f6	0.008519163
168	0xbbd81eb6	-0.006595458
169	0xbb746c8a	-0.003729614
170	0x3a848b8e	0.0010112391
171	0x3c2b321f	0.0104489615
172	0x3c9c6e86	0.01909567
173	0x3c93ac4a	0.01802649
174	0xbc71f7ad	-0.014768523
175	0x332e7d99	4.0626762e-08
176	0x347c34d2	2.3488545e-07
177	0x3c4edc35	0.012625744
178	0xbcfdf472	-0.03100035
179	0x3d273989	0.040826354
180	0xbd3de9f8	-0.046365708
181	0xbc870db0	-0.016486019
182	0x3c2f4083	0.010696533
183	0xbd20ccf2	-0.03925795
184	0xbdd3c17a	-0.10339637
185	0xbdbdbd6a	-0.092646435
186	0xbc3ec9d0	-0.011644796
187	0x3c083a0a	0.008314619
188	0x3c56a09e	0.013099818
189	0xbd786049	-0.0606387
190	0xbd8dab8a	-0.06917484
191	0xbd0c46f6	-0.03424736
192	0xbcd0557b	-0.025431385
193	0x3d36e116	0.044648252
194	0x3d42fc1a	0.047603704
195	0x396b9e80	0.00022470392
196	0xbc003f30	-0.007827565
197	0x3acb02d6	0.0015488516
198	0x3dbccea8	0.09219104
199	0xbd1c1d4a	-0.03811387
200	0xba12c1c5	-0.0005598332
201	0x3dc336a1	0.09531904
202	0xbb2e9077	-0.00266364
203	0xbc210670	-0.009828195
204	0x3d7306ec	0.059332773
205	0x3d4b993d	0.049706686
206	0x3d8f24ae	0.06989418
207	0x3cda0e00	0.026618004
208	0x3c948c3e	0.018133279
209	0x3d7633fe	0.060108177
210	0xbd86298a	-0.06550892
211	0x3c4c24a7	0.0124599105
212	0x3d5bef43	0.053694975
213	0x3da58e0f	0.08083736
214	0x3c9ee5a4	0.01939661
215	0xbd4f3a5d	-0.05059277
216	0xbd74e09e	-0.059784524
217	0x3bb79a97	0.0056031453
218	0x3d16b3fd	0.036792744
219	0x3c43d690	0.011953011
220	0x3d948d4b	0.07253512
221	0xbb4289dc	-0.0029684221
222	0xbc758a66	-0.01498661
223	0x3d91da42	0.071217075
224	0xbd9171d2	-0.071017876
225	0xbc7c15c7	-0.0153860515
226	0xbcaab6ab	-0.020839056
227	0xbccaa2a8	-0.024735764
228	0x3c708eef	0.0146825155
229	0x3d79aecc	0.060957715
230	0xbd4b39a6	-0.049615525
231	0xbdda6189	-0.106631346
232	0x3d9225fd	0.07136152
233	0x3d21dd49	0.039517675
234	0xbd02cc0c	-0.031932876
235	0xba86347b	-0.0010239029
236	0xbc310672	-0.010804759
237	0xbd953bac	-0.07286772
238	0xbd33ead5	-0.043925125
239	0xbd26c9f2	-0.040719934
240	0xbd8d9f4a	-0.069151476
241	0xbd8a493c	-0.067522496
242	0xbcecf5ab	-0.028925737
243	0x3d1ba93e	0.0380032
244	0x3c0dca8c	0.008654248
245	0xbdbb5808	-0.0914765
246	0xbcf35f70	-0.029708594
247	0xbcd18e38	-0.02558051
248	0xbd36074e	-0.04444056
249	0xbb991f5c	-0.004672928
250	0x3cd58d7e	0.026068445
251	0xbcded5f6	-0.027201634
252	0xbc7abfdb	-0.015304531
253	0xbd55674f	-0.052100476
254	0xbd2b2ef8	-0.04179284
255	0xbd6983c5	-0.05701043

margin_fc.bias f4 [64]
0	0xbcbce0e9	-0.023056464
1	0x3bd2c3d4	0.006432036
2	0x3d8ef020	0.06979394
3	0x3bcb0ea8	0.0061968155
4	0xbc894f0b	-0.016761323
5	0x3db28917	0.08717554
6	0x3cc5dbcc	0.024152659
7	0x3cdc7523	0.026911324
8	0x3c827152	0.015923176
9	0xbd476a19	-0.048685167
10	0x3d0d7fc5	0.03454568
11	0xbd0fe949	-0.035134587
12	0xb8ab7760	-8.176151e-05
13	0x3ba3bb3a	0.0049966844
14	0x3dd5af4b	0.10433825
15	0xbbf7e22a	-0.0075648027
16	0xbd8699cf	-0.065723054
17	0xbc63be42	-0.0139003415
18	0x3c59bc84	0.0132895745
19	0x3d60a206	0.054842018
20	0x3c1945a1	0.00935498
21	0x3ceb2f4f	0.028709082
22	0x3de5e8ec	0.11226067
23	0x3db4a216	0.08819978
24	0x3c38f4fe	0.011288879
25	0x3d3b2bac	0.045695946
26	0x3d393fdc	0.045226917
27	0xbcb88d3c	-0.022528283
28	0xbd10de5e	-0.035368316
29	0x3b28b955	0.0025745232
30	0x3d497e4f	0.049192723
31	0x3c9e88bc	0.01935231
32	0x3d37a0db	0.044831138
33	0x3de0019f	0.10937809
34	0xbd909120	-0.070589304
35	0xbd281b63	-0.041041743
36	0x3d268e08	0.040662795
37	0xbd34100e	-0.043960623
38	0xbd9405d8	-0.07227677
39	0x3d8033ba	0.06259866
40	0x3d5da7d5	0.054115135
41	0x3d9a3437	0.075294904
42	0x3e0161ea	0.12635008
43	0xbc8ed622	-0.01743609
44	0xbc0da2f5	-0.008644809
45	0x3de10218	0.109867275
46	0x3d9962ab	0.074895225
47	0xbcc4d694	-0.0240281
48	0xbcb50d1f	-0.022100983
49	0x3c8f52c5	0.017495522
50	0xbd0093ba	-0.031390883
51	0x3cdd97eb	0.02704998
52	0xbadac692	-0.0016691259
53	0xbd446c80	-0.047955036
54	0x3c902d0e	0.017599609
55	0xbd402cdf	-0.046917792
56	0xbd116e7c	-0.035505757
57	0x3d54eb8c	0.051982448
58	0x3df26535	0.1183571
59	0x3dfcce6f	0.123440616
60	0xbbd14d1d	-0.0063873664
61	0xbd30440e	-0.043033652
62	0xbbabb417	-0.0052399742
63	0x3d8bd60a	0.06827934

margin_head.weight f4 [1, 64]
0	0xbbb224f4	-0.005436534
1	0x3e209cac	0.15684766
2	0x3e04f81a	0.12985268
3	0x3e17fe72	0.14843157
4	0xbd72c390	-0.059268534
5	0x3e20e096	0.15710673
6	0x3e362b1b	0.17789881
7	0x3d8d7e6e	0.0690888
8	0x3e05f180	0.13080406
9	0xbd68168c	-0.056662127
10	0x3e150e4a	0.14556232
11	0xbd2dc6c3	-0.042425882
12	0x3e1a977b	0.15096848
13	0xbc648628	-0.013948001
14	0x3e034c87	0.12822162
15	0x3a782819	0.0009466424
16	0xbd88ccb2	-0.066796675
17	0x3b85a9fc	0.0040791016
18	0x3c15853e	0.009126006
19	0x3d73b890	0.059502184
20	0x3e32fc79	0.17479123
21	0x3d1c66f9	0.03818414
22	0x3dc33afa	0.09532733
23	0x3d9d1c65	0.076714315
24	0x3e163415	0.14668305
25	0x3da65d2f	0.08123242
26	0x3e2c06fe	0.16799542
27	0xbdaf7b0d	-0.08568392
28	0xbd29bf4b	-0.041442197
29	0xbc44a76b	-0.012002806
30	0x3dad303a	0.08456464
31	0x3e34ff66	0.17675552
32	0x3ddba317	0.10724466
33	0x3e117f86	0.14208803
34	0xbd84c943	-0.064837
35	0xbd3779f9	-0.044794057
36	0x3db96eca	0.090543345
37	0xbbe6cbb8	-0.007043328
38	0xbd93a545	-0.07209257
39	0x3e2de103	0.16980366
40	0x3d397f0b	0.045287173
41	0x3e0c8598	0.13722837
42	0x3d99cf18	0.07510203
43	0xbcfc0d47	-0.03076805
44	0xbd47c313	-0.04877002
45	0x3dc5a47d	0.09650514
46	0x3dec1945	0.11528257
47	0x3a803c8a	0.0009783667
48	0x3d066d17	0.03281888
49	0x3d1df6cb	0.03856544
50	0xbd8ff6f1	-0.07029522
51	0xbd920d0e	-0.07131396
52	0x3dcf55d8	0.10123795
53	0xbd85d727	-0.06535178
54	0x3e2b8a90	0.16752076
55	0xbd8861e6	-0.06659298
56	0xbc9b76aa	-0.018977482
57	0x3dae5dd6	0.085139915
58	0x3deabadc	0.11461422
59	0x3dbe36c2	0.09287788
60	0x3e05be86	0.1306096
61	0xbd349870	-0.04409069
62	0x3d5a08e6	0.053231142
63	0x3e13e6d3	0.14443521
