model/match_predictor.pt (torch, 16381 bytes, 6 tensors)

win_backbone.0.weight f4 [64, 22]
000000 90 c0 24 bd fe 10 a6 bd 2f 88 cb 3d ef d3 6f bd
       -0.040222704 -0.0810871 0.09938084 -0.058551725
000010 a7 2c 1d 3e 8f 39 39 bd 5c 78 06 be fe 63 07 3e
       0.15349065 -0.045220908 -0.13131851 0.13221738
000020 4a 62 11 be 9a d9 52 bd de ab 8d be 29 28 63 3e
       -0.1419765 -0.051477052 -0.27670187 0.22183289
000030 cd 29 86 bd e0 b4 f4 be 63 29 f6 be 27 40 ab 3e
       -0.065509416 -0.47794247 -0.4807845 0.33447382
000040 25 81 58 be 57 4c 89 3e fb 05 8d be 71 ca 30 be
       -0.21143015 0.26816055 -0.27543625 -0.17264725
000050 01 17 ec 3c f0 1a 5b be f9 98 3c be 24 d5 87 3d
       0.028819563 -0.21396995 -0.1841773 0.0663245
000060 05 bb e2 bc d1 c7 2e 3e 22 36 a9 bd eb 91 83 3d
       -0.027677068 0.17068411 -0.08262278 0.06424316
000070 51 4a 65 be a6 20 be 3d d2 ca 24 3d 91 0f 33 3d
       -0.2239163 0.09283571 0.040232487 0.043716017
000080 5b 64 35 bc e4 aa 1c 3e f5 d0 68 3c 6d 28 15 3d
       -0.01107129 0.15299565 0.0142099755 0.036415506
000090 d3 0b 8d be f0 be 3c bd 1a cf 84 be b6 ce 3d 3e
       -0.27548084 -0.04608053 -0.25939256 0.18535885
0000a0 1a f7 9d 3d b2 d7 8c bd 92 ed bb bd fa a4 65 bd
       0.077131465 -0.06877078 -0.09176172 -0.056065537
0000b0 bd 33 9e 3e e2 2f da be 3e 7b 17 be 61 96 53 3e
       0.30898848 -0.42614657 -0.14793107 0.20662834
0000c0 39 c6 0d 3f e8 00 c1 3e 7b 87 fc bd 09 7e 16 3d
       0.5538059 0.37696004 -0.12330528 0.03674129
0000d0 30 78 41 be c6 c3 b5 3d d0 dc 11 be e0 a2 a1 3e
       -0.18893504 0.088752314 -0.1424439 0.31569576
0000e0 8e 8f 3e 3e 48 73 2d 3f 18 a6 2e bd f0 8a 8e bf
       0.1860945 0.6775403 -0.042638868 -1.113615
0000f0 e5 be 25 be f2 66 62 bf a9 f6 f9 3d 50 4d 65 bf
       -0.16186102 -0.8843833 0.1220525 -0.89571095
000100 dc f0 6f 3f 72 05 09 bf 0d fb 99 be d0 cf 85 3e
       0.937269 -0.53523934 -0.3007435 0.2613511
000110 f5 96 5b bc 54 3f 9f 3e 7f 12 27 3c 69 26 35 bf
       -0.01340269 0.31103003 0.010197281 -0.70761734
000120 44 5c fa 3c 30 00 b4 bc d5 c6 f1 3e d3 1d 04 be
       0.030561574 -0.021972746 0.4722201 -0.12902002
000130 3f da fd be 83 8b 77 bd 72 0c aa 3d ca 03 07 be
       -0.4958057 -0.060435783 0.08303155 -0.13185039
000140 8d 74 c8 3d 11 a3 18 3e 44 0f 97 be d3 9d fa 3e
       0.09787855 0.14905955 -0.29503834 0.48948535
000150 b8 2b b4 be 99 aa e9 bd 21 71 fd 3e 1b 0f e0 3e
       -0.35189605 -0.11409492 0.49500373 0.43761525
000160 6a 72 0a 3d 42 8e dc 3d de f4 5d 3e 7d 56 30 3d
       0.03380052 0.10769321 0.2167544 0.04305123
000170 d2 ca 2e 3e e3 3a 5d be b6 73 a8 3e a5 12 17 3d
       0.17069557 -0.21604495 0.3290078 0.036883015
000180 0b 17 9f bd 68 c3 9c bd 8d ce e6 3d dd 1b d5 3c
       -0.07768067 -0.07654458 0.11269865 0.026014263
000190 7d 17 a6 3e 79 f4 d4 3c c1 59 85 bc c6 85 0b bd
       0.32439795 0.02599548 -0.01627815 -0.034063123
0001a0 dc 68 a3 be 6f 56 6e 3e ba 49 05 bf 1d e3 06 3f
       -0.3191594 0.2327516 -0.5206562 0.526903
0001b0 51 f1 00 3d 5a e4 b9 3d 4f d0 c8 bd 16 9f 1c 3e
       0.031480137 0.09076758 -0.09805357 0.15295061
0001c0 d1 20 ba 3d ab a9 c8 be fc b2 47 bd dc 82 2c 3e
       0.090882905 -0.39191946 -0.048754677 0.16846794
0001d0 67 f0 59 3e 5c fa 67 3e 0a 5e db 3e 09 b1 1f 3e
       0.21283112 0.22654098 0.42845184 0.15594877
0001e0 e7 c8 79 3e 44 8d aa 3e b5 69 00 3e de 47 3a 3e
       0.24393044 0.33310902 0.12540324 0.18191478
0001f0 e3 5f 86 3e 09 e1 c4 3d b4 f2 c9 be eb 52 ae 3e
       0.2624503 0.096132345 -0.3944298 0.34047636
000200 d0 ad 8d bd 2a 31 72 be a6 13 0b bf 22 f5 45 3b
       -0.06917918 -0.23651567 -0.54326856 0.0030205925
000210 77 90 e9 3e 9e 91 9b be 47 b2 0e be e2 f4 ad be
       0.4561803 -0.30384535 -0.13935195 -0.33975893
000220 1f e7 94 3e c1 ad 00 3f ee 5a 5a 3d f0 ee 3c bd
       0.2908258 0.5026513 0.053309374 -0.046126306
000230 4e f7 e0 3d 44 c8 3a 3d 79 d4 1c be f7 8c ad 3e
       0.109846696 0.045601144 -0.15315427 0.3389661
000240 0c 06 89 3d 09 dd be 3e 6a ac 3a 3e ea f7 26 bf
       0.066906065 0.3727801 0.18229833 -0.65222037
000250 7d 29 e2 3d 01 3b a6 be fb be 06 3e bb 62 a4 be
       0.110430695 -0.3246689 0.13158791 -0.32106575
000260 e4 8d b8 3e 6f e9 bc be ae 5f ae bd 50 49 5d bd
       0.36045754 -0.36896846 -0.08514343 -0.054024994
000270 ce 25 78 be b7 c7 ee 3d 86 e6 3e bd 3d 71 7d be
       -0.24233171 0.11659186 -0.046606563 -0.24750228
000280 18 36 15 be d6 54 17 3e be 35 a2 3d a1 55 49 3d
       -0.14571416 0.14778456 0.07920407 0.049153928
000290 e9 33 6f 3d 42 98 fb bc 99 87 1a 3d 4a ff 41 bd
       0.058399115 -0.03071225 0.037726972 -0.047362603
0002a0 39 74 2d 3e 20 fa e6 3d 00 10 10 3d 51 a1 85 3e
       0.16938867 0.11278176 0.03517151 0.26099637
0002b0 4e 37 11 be 74 31 42 3d c7 27 68 3e 4d b4 22 3e
       -0.14181253 0.047410443 0.22671424 0.15889092
0002c0 88 d4 ba 3d f6 c1 11 be 5c 6c 0e be 83 fa 80 3b
       0.09122568 -0.14234146 -0.13908523 0.0039361133
0002d0 b9 0c 5c bc a9 bf 3d bd 28 e1 15 3e c0 da 55 bd
       -0.013430768 -0.04632536 0.14636672 -0.05221057
0002e0 83 8a a2 3d 55 c0 a0 3c 86 88 5a 3d 4e 2e 8b bd
       0.07936575 0.019622961 0.053352855 -0.06795941
0002f0 6e 11 28 be 79 b9 15 3c 8e 04 0e be c1 3d 50 3d
       -0.16412899 0.009138458 -0.13868925 0.050840143
000300 5b 96 b3 bd 70 d9 64 bd 60 c2 1d bb 13 37 0c 3d
       -0.087689124 -0.055871427 -0.0024072155 0.03423221
000310 77 68 1c bd 46 e1 0d bc b6 80 5b 3c be a0 6d bd
       -0.038185563 -0.008659666 0.013397386 -0.058014624
000320 08 1b c3 3d 29 0b 2d be 17 e1 7d be d8 8f e9 bd
       0.0952664 -0.16898789 -0.24792896 -0.11404389
000330 7b 05 41 be e2 a6 74 be 04 95 b2 bd 6a 3f 3e bd
       -0.18849747 -0.23891786 -0.08719829 -0.046447195
000340 fc 6c 4c bd 4c 8a 7f be 00 b7 a1 be 35 38 f2 bc
       -0.049908623 -0.249551 -0.3158493 -0.029567817
000350 40 25 02 3f a3 e7 29 bd ef 72 a9 bd 5b 3c d3 3d
       0.5083809 -0.04148067 -0.08273875 0.10314246
000360 93 11 a8 be 3b e6 12 3e 73 5c 0d bb ac 39 d6 3d
       -0.32825908 0.14345638 -0.0021569997 0.10460219
000370 d9 22 f1 bd 3c 3c 3a bd 88 f2 08 3d 44 db d4 bd
       -0.11774225 -0.0454676 0.03343442 -0.10393384
000380 bf 56 93 3e 5c 87 a6 3d 8b 05 bc be f1 6c eb 3c
       0.2877712 0.081312865 -0.3672298 0.02873847
000390 1f 1c 73 be 08 d4 5d 3e 05 bf ea 3b 99 82 84 3d
       -0.23741196 0.21662915 0.0071638846 0.06470222
0003a0 67 39 82 bc 1e 9e 8b 3d fd a6 4d 3e ba 58 76 bb
       -0.015896512 0.06817268 0.20083232 -0.0037589506
0003b0 dc d2 45 be ef 2d 9f 3e 07 ec 53 3d cd d0 73 3e
       -0.19318718 0.31089732 0.051738765 0.2381012
0003c0 5c 83 4f 3e e3 71 50 be 41 f0 97 be 93 64 f0 3d
       0.20264953 -0.20355944 -0.29675487 0.11737933
0003d0 fb c1 05 bc 57 93 ca 3d f0 ec 1f be 67 25 de bd
       -0.008163924 0.09891384 -0.15617728 -0.10846978
0003e0 fb 26 04 3d f3 c1 20 be 77 60 80 3e ab 5d 15 be
       0.032263737 -0.15698986 0.25073597 -0.14586513
0003f0 1f 01 50 bc 8f 5c 11 be e0 54 cd bd 2b 77 a8 3c
       -0.01269558 -0.14195465 -0.10025954 0.020564636

win_backbone.0.bias f4 [64]
000000 15 61 a3 bf ea 22 fa be 9c 36 d4 bf 76 6d c2 3e
       -1.2764002 -0.48854762 -1.6579165 0.37974137
000010 ab 97 89 bf 36 ff 85 be 4b c3 93 bf a5 84 e9 be
       -1.074941 -0.26171273 -1.1543974 -0.45609012
000020 99 62 a7 be 72 90 e2 be 9a f9 81 bf 46 03 de be
       -0.32692412 -0.44250828 -1.0154297 -0.43361872
000030 80 3c a4 be 00 1a 34 bf ad 2d c7 be cc 19 81 bf
       -0.32077408 -0.7035217 -0.38902035 -1.0085998
000040 be 78 7a bf 68 9c 23 3d a3 fd 2a bf a0 50 10 bf
       -0.9784049 0.039944082 -0.6679327 -0.56373024
000050 3b fd ad be d3 7d 68 bf 87 6d ca bf bd ac d7 be
       -0.33982262 -0.9081699 -1.5814675 -0.42123976
000060 69 f5 8d bf 40 96 a7 bf 56 15 3a bf a4 92 3b bf
       -1.1090518 -1.3092728 -0.72688806 -0.7327063
000070 dc b4 5e bf cb 1a 0e bf 47 e4 90 bf 1a 0c 43 bf
       -0.8699472 -0.5550963 -1.1319665 -0.7619034
000080 7d f0 f0 be 90 ce ee bc 6c 4b 73 bf 5e 04 d6 3d
       -0.47058478 -0.029151231 -0.9503696 0.10450052
000090 2a e6 00 bf e3 1e bd bf 63 9f b5 bf 60 92 9e be
       -0.503512 -1.4775051 -1.4189266 -0.3097105
0000a0 a9 45 aa bf bb ad ab bf 37 10 86 bf 9a 14 72 bf
       -1.3302509 -1.3412393 -1.0473698 -0.94562685
0000b0 14 00 02 bf 3f f0 91 bf 5b 08 28 bf 01 bb 34 bf
       -0.5078137 -1.1401442 -0.6563775 -0.70597845
0000c0 d4 d0 48 bf 7d 36 a6 bf 81 ce 88 bf 6b 38 3f bf
       -0.78443646 -1.2985379 -1.068802 -0.7469546
0000d0 8b 12 9d bf 2d 17 a9 bf fa a4 e7 be f3 83 ab bf
       -1.2271284 -1.3210198 -0.45243055 -1.3399643
0000e0 95 94 1d bf 6e 40 0f bf 7c c0 19 bf 24 72 cf be
       -0.61554843 -0.55957687 -0.6005933 -0.4051677
0000f0 2e 5a 65 bf 0b 19 d0 be 0a a0 17 bf 77 b0 8d bf
       -0.8959073 -0.40644106 -0.59228575 -1.1069478

win_head.weight f4 [1, 64]
000000 24 6b 2c 3d e8 8c 08 3c b7 76 f7 be 8d 6a f0 3d
       0.042094365 0.008334376 -0.4833276 0.11739073
000010 34 0c 49 3c 4f ea d3 3c 80 e0 ee bd 30 ed 35 3a
       0.012270976 0.025868563 -0.11663914 0.0006939946
000020 7b d7 ed ba 27 b6 2d 3d 30 0f 78 3a 44 86 19 3c
       -0.0018145883 0.042410042 0.00094627123 0.00937039
000030 f5 84 1a 3b a4 ec 91 bb 4f b1 d4 bd ac 0d 95 3d
       0.0023577784 -0.0044532586 -0.103853814 0.07277998
000040 43 40 48 bd 3d cf df 3d c2 b6 66 bb 8c 57 8d 3c
       -0.04888941 0.109281994 -0.0035204147 0.01725366
000050 2e 59 8f 3d fd d5 98 3b cf f5 58 be 3e 72 c5 3d
       0.069994316 0.0046641813 -0.21187519 0.096409306
000060 2e 7b 59 3e 36 30 29 3d e1 24 28 bc 4c 8b 11 be
       0.21238396 0.041305743 -0.010262699 -0.14213294
000070 98 b9 4e 3c c8 c3 9d 3c 13 ad ac bd 0a 7b a2 3c
       0.012617491 0.019258395 -0.08431449 0.01983406
000080 b7 3e 78 3d bd eb dc 3d 4f e1 eb 3c 66 de 5c 3e
       0.060606685 0.10787151 0.028793959 0.21569213
000090 67 52 6b bb 67 7a 0f bd fb a2 69 3d 4a e0 ac 3b
       -0.003590727 -0.03502884 0.057040196 0.005275761
0000a0 25 08 13 3e 25 6d 66 bc 0a 25 0f 3d ae 94 7d be
       0.14358576 -0.014064108 0.034947433 -0.24763748
0000b0 8d 1a e3 3d 30 a8 b4 38 b9 18 28 be b6 38 8d 3e
       0.110890485 8.614396e-05 -0.16415681 0.2758233
0000c0 c7 b4 be 3d cf ec a0 3c d7 b5 18 3d 87 53 66 3d
       0.09311824 0.01964417 0.03728279 0.056232
0000d0 4d 60 d9 3d a4 ce 0b bd 9b 4e aa 3d 17 84 15 3e
       0.10614071 -0.034132615 0.08315774 0.1460117
0000e0 bf 0c 17 3a 56 d8 54 be 33 2f 91 3c 98 bc 07 3a
       0.0005762092 -0.2078565 0.017722702 0.0005177944
0000f0 0e 25 89 3c 20 fd 1e be df ec 6d bc 37 ee d7 bc
       0.016741302 -0.15526247 -0.0145218065 -0.026358707

margin_backbone.0.weight f4 [64, 23]
000000 6a 54 80 3c dc 0c 00 bd 96 66 26 3e cb b1 ed 3c
       0.015665252 -0.031262264 0.16250071 0.029015442
000010 55 a1 9a bd 83 7b 75 be 04 9d a9 bd ec 9d 2b 3e
       -0.07550303 -0.23972897 -0.082819015 0.16759461
000020 70 e5 47 b9 b2 ca 34 bd e8 c0 ab bb 89 bf b4 be
       -0.00019063591 -0.044138618 -0.005241502 -0.3530238
000030 83 23 84 bd e7 e1 84 be ae e9 85 3e b8 ba 9f 3e
       -0.06452086 -0.259536 0.26154846 0.31197143
000040 65 78 37 3e 68 a6 99 3d e5 5a ea 3e dd 5c 8d bb
       0.1791702 0.075024426 0.45772472 -0.0043140487
000050 7f 45 db 3c 30 3d aa 3d d4 fd 4a bf fd c8 25 3b
       0.026766537 0.08312452 -0.7929356 0.00252968
000060 04 9a 06 3e d8 9e 81 be a9 34 79 3e 5f 73 26 3e
       0.1314469 -0.253165 0.24336495 0.16254948
000070 fb a4 ef bd 72 a7 29 be 12 2f 9b be 10 66 19 3e
       -0.117013894 -0.16567782 -0.3030935 0.1498034
000080 52 22 f8 3e b4 ca 8c be 12 dc 10 bc ce e0 44 3d
       0.48463684 -0.274984 -0.008841531 0.048065953
000090 db b6 e2 be 95 b8 8d be eb 63 85 be 4d 8f b1 be
       -0.44280133 -0.27679887 -0.26052794 -0.34679642
0000a0 8c 6f 06 3d 56 80 b9 3e 07 07 16 3d f0 25 b0 3e
       0.032821223 0.36230725 0.036627796 0.34403944
0000b0 0c 7c 7c be c8 75 24 3f 2e ee 67 3e e5 1b 7e be
       -0.24656695 0.6424222 0.22649452 -0.24815328
0000c0 77 46 d6 bd 04 ba 95 bd 1c 37 90 3c e9 7d ea 3d
       -0.10462659 -0.0731087 0.017604403 0.11449797
0000d0 c3 f9 0f 3e 72 5b 08 be 90 93 ff 3e 4c 25 ba 3e
       0.1406012 -0.13316134 0.4991727 0.3635658
0000e0 16 90 2a 3e 05 d1 fb 3d 06 0e 44 3e 6c d9 7e 3e
       0.16656527 0.12295727 0.19145975 0.24887627
0000f0 2c 02 c2 be 4c 39 34 bf 27 b3 69 be 90 5b 82 be
       -0.37892282 -0.7039993 -0.22822247 -0.25460482
000100 bb a3 15 3f 44 c7 1d 3e 9f 73 6a 3f 85 95 a6 bd
       0.5845296 0.15408045 0.91582674 -0.08133987
000110 75 50 75 bf 26 f3 8e be 7a d0 11 3f 6c 15 2b 3f
       -0.9582589 -0.27919883 0.56958735 0.6682956
000120 1e f1 98 be 25 45 4e be 7b 9a e4 be 58 4e ee 3e
       -0.29871458 -0.20143564 -0.4464911 0.46544147
000130 4c 52 19 3f f1 72 10 3f 12 67 05 be d5 b1 53 3d
       0.598912 0.56425387 -0.130276 0.051683266
000140 13 f2 52 be 39 d6 9c bd 35 a7 b1 3e 7d d1 df 3e
       -0.20600156 -0.07658047 0.3469788 0.43714514
000150 53 2e b0 3d 53 3f 7b be 95 74 5d bc 50 82 b5 be
       0.08602586 -0.24535875 -0.013516565 -0.35450983
000160 f8 aa 15 be 49 a4 a9 be 02 5c c0 3e 27 48 54 3f
       -0.14616 -0.33133152 0.37570196 0.82922596
000170 a8 ff 82 3d 9c 1c b0 be 82 26 cd bc e3 88 8a 3d
       0.06396419 -0.34396827 -0.025042776 0.0676439
000180 ea 47 a6 3e 4a 30 d3 3d 74 86 fb bd 2f 23 0b 3c
       0.3247674 0.10311945 -0.12281504 0.008492275
000190 3f 16 20 be 0c 00 9a 3c b2 01 80 3e 75 9c 15 3f
       -0.15633486 0.01879885 0.25001293 0.5844186
0001a0 29 ed b5 3e f6 88 01 3f 3f 02 68 be 50 41 12 bf
       0.355325 0.5059961 -0.22657107 -0.5713091
0001b0 5e 4a ec 3b b4 ca ae be dd f2 89 3d 60 bd 58 3d
       0.0072110137 -0.34139025 0.067357756 0.052914977
0001c0 63 70 ee 3e f2 a8 40 be ca e2 70 3f 1a ad 23 be
       0.4657012 -0.18814448 0.9409605 -0.15984002
0001d0 5e 42 42 be 2d 28 72 3d ad f1 9c bd bb 8c ba bc
       -0.1897063 0.059120346 -0.076632835 -0.022772184
0001e0 2f 1f 3c 3e 7b f2 39 bd 58 92 c2 3b 9b b5 4f 3e
       0.1837127 -0.045397263 0.0059378557 0.2028412
0001f0 c4 b1 96 bc 70 e5 13 bd 2c c9 ec bd cd 36 bf bd
       -0.018395312 -0.03610748 -0.11561808 -0.09336624
000200 03 10 32 be e5 51 be 3d aa 03 f6 3c 21 04 8a 3e
       -0.1738892 0.09292964 0.030031044 0.26956275
000210 5b fa 2c be e6 8a a7 3e dd a9 2e bd 6e 3f 11 be
       -0.16892378 0.3272316 -0.042642463 -0.14184353
000220 64 42 45 bc ff 6b 50 3f 21 0d 78 be d3 42 a5 3e
       -0.012039755 0.8141479 -0.24223758 0.32277545
000230 d0 28 1e 3e 59 65 e5 bd 1d 89 78 be 79 1b d2 3d
       0.15445256 -0.11200971 -0.24271055 0.10259146
000240 26 01 80 3c 6c 14 02 3e cf 42 c8 3e ff 6c 84 3e
       0.015625548 0.12703103 0.3911347 0.25864407
000250 61 f9 bc 3e cd 7d a2 bd 1c bb 4a 3e 33 90 04 3e
       0.3690901 -0.07934151 0.19797939 0.12945633
000260 fa 9a 78 3d bf 31 f1 3c 92 3c 86 bd 78 bf 8a 3e
       0.060694672 0.029442666 -0.065545216 0.27099204
000270 e8 b7 da bd 37 d8 2c bf 30 0b 0a bf 0b ed f7 3e
       -0.106796086 -0.6751742 -0.5392332 0.48423037
000280 5a c4 3a 3e df e7 75 3e dd d2 12 be dd d8 4f 3e
       0.18238965 0.24014233 -0.1433825 0.2029757
000290 8d f3 84 bd 26 74 85 be 4e ed 0f be 8a 43 70 be
       -0.06491766 -0.26065177 -0.14055368 -0.23463264
0002a0 ba 75 67 3c 62 03 17 bd ad c4 23 3d 3e 0c 53 3e
       0.014127189 -0.03686846 0.039982487 0.20610139
0002b0 5d 39 fc 3d d8 cc 29 bd fe 85 80 3d 93 14 22 3e
       0.12315629 -0.04145512 0.06275557 0.15828161
0002c0 35 64 99 3d fc a7 c8 bd 40 5d fb bd 2b 9e 9b 3e
       0.07489816 -0.097976655 -0.122736454 0.3039411
0002d0 d2 9d 10 be c5 60 c9 3d 69 c5 95 3d 02 f2 85 3f
       -0.14122704 0.098329104 0.073130436 1.046448
0002e0 6a c2 4b 3e dc fb f2 be 55 4c b8 be 6e 24 bb 3e
       0.19898382 -0.47457778 -0.35995737 0.3655123
0002f0 1b 60 39 bf 5d 9a ab bd 56 1f 99 be 53 19 0c be
       -0.7241227 -0.08379052 -0.2990672 -0.13681535
000300 fa 8a 0c bf 04 8e c5 3d 5c c1 03 bf bf 19 9b 3e
       -0.5489956 0.09646228 -0.5146692 0.3029308
000310 2f ab df 3d c9 f5 ea 3e 0a 58 0d 3e 07 a0 80 be
       0.109213226 0.45890644 0.13803115 -0.2512209
000320 79 8c fa 3e 5d 69 1c bf c0 9f 3d 3f 0a 15 ea bc
       0.48935297 -0.6109827 0.74071884 -0.028574485
000330 c7 be 9b 3e 03 ce 6b be 9d 02 ef 3e d7 58 ae bd
       0.3041899 -0.23027806 0.4668168 -0.085130386
000340 69 df 86 bb 6a 1e 90 3d b9 f3 ec bd 26 93 11 bd
       -0.004115988 0.07037051 -0.11569924 -0.035540722
000350 09 51 10 bd f7 26 5d be 00 cf 40 bd 92 77 a6 be
       -0.03523353 -0.21596895 -0.04707241 -0.325131
000360 26 84 78 3e 30 6b 91 3e 01 84 94 be b9 78 12 be
       0.2426916 0.2840209 -0.2900696 -0.14303865
000370 65 6b 32 be 80 f6 2e 3e d8 8b 30 3e 2d 8c dc bd
       -0.1742378 0.1708622 0.17240846 -0.10768924
000380 54 a9 b9 3e fa e7 f3 3e 93 c2 22 be 10 cf 54 bd
       0.36262 0.47637922 -0.15894537 -0.051955283
000390 fd f3 6a 3e dc a4 53 3f bc 61 3a be cd ef a9 3e
       0.22944637 0.8267343 -0.18201345 0.33190766
0003a0 6a 7f aa 3e 8a 17 c3 bb a2 5e 89 bf 43 35 2d be
       0.33300334 -0.005953734 -1.0732005 -0.16914849
0003b0 eb aa 7d bd 8a 7f 13 3b 97 1b 0f 3f 79 48 26 3f
       -0.06193058 0.002250644 0.55901474 0.64954334
0003c0 14 90 0c 3e 7a e5 c3 be b6 24 9a be 6d e9 5c 3e
       0.13726836 -0.38261014 -0.30106133 0.2157342
0003d0 e0 37 c4 3e 84 84 00 3f 03 5a 66 bc b2 2d 09 3f
       0.3832388 0.502022 -0.014059546 0.5358535
0003e0 a4 46 bf 3d ee 7b 4f bd 9a 19 dd 3c 44 db a3 bd
       0.093396455 -0.050655298 0.026989747 -0.08000806
0003f0 08 3b 07 3f d9 07 8e 3e 1e da ff be 10 d1 e9 be
       0.5282445 0.27740362 -0.49971098 -0.45667315

margin_backbone.0.bias f4 [64]
000000 b4 ee 2b bf 34 c6 33 3f 37 f5 ba bf 79 a2 33 3f
       -0.6716111 0.7022431 -1.4606084 0.7016979
000010 57 84 80 3f 21 2d 38 3f 5c 57 ca 3d 48 bd 67 3f
       1.0040387 0.7194386 0.09879944 0.90523195
000020 ee 20 d0 3e ec 58 58 3f fa 02 85 3e 08 cc 5e 3f
       0.40650123 0.84510684 0.25978833 0.87030077
000030 fa ce 42 be a1 f3 91 be 40 fa 4b bf 90 94 2a bf
       -0.19024268 -0.28506187 -0.79678726 -0.6663294
000040 2c 6f 27 bf 7a e3 fd 3c a0 61 55 bf 41 b2 2e 3f
       -0.6540401 0.030992258 -0.8335209 0.68240744
000050 ab 7a ac be 00 7a 57 3f 5c 3f 7d 3f 37 7e aa 3d
       -0.33687338 0.8417053 0.98924804 0.08324855
000060 69 a3 14 3f 9c 3a 4f 3f 5f 51 5e 3f 77 73 d2 bd
       0.58061844 0.80948806 0.8684291 -0.102759294
000070 77 c4 3c 3f 5a 00 ee 3e 30 5b a9 3c 2b 0a 07 3f
       0.7373728 0.46484643 0.020673364 0.5274989
000080 99 73 df 3e 74 a9 70 bf 55 e4 13 3f 71 32 65 3f
       0.43642882 -0.94008565 0.5777028 0.8953009
000090 c4 89 20 bf 48 72 b4 bf ab 9f 66 bf 45 8b ca bc
       -0.62710214 -1.4097376 -0.90087384 -0.024724612
0000a0 74 76 d4 bf 91 a4 aa 3e 91 05 55 3f f2 95 5a 3f
       -1.6598649 0.3332868 0.8321162 0.8538505
0000b0 63 ce 38 bf 51 6a 73 3f 3e cb 85 3f 2c df 99 be
       -0.7218992 0.950841 1.045265 -0.3005308
0000c0 fc 0b b9 bf cc 7e 55 3e 72 ac 53 3f 9f 1c 00 3f
       -1.4456782 0.2084915 0.82685006 0.5004367
0000d0 fe ef 1d bf d3 2c 55 3f 06 87 cd 3e 62 5c 8e 3e
       -0.61694324 0.8327152 0.40142077 0.27804857
0000e0 20 07 d1 3e 6a 06 1b 3f 3d f1 a7 be 13 87 6a 3e
       0.40825748 0.6055666 -0.32801238 0.22903089
0000f0 7b 41 4d 3f 8a 02 2e 3f 35 6a a0 3e c1 a4 19 3f
       0.8017804 0.67972624 0.3133103 0.6001702

margin_head.weight f4 [1, 64]
000000 5e e6 a1 3d 3f 34 fb 3d 68 56 6d be f1 38 96 3e
       0.07905267 0.122658245 -0.23177493 0.29340318
000010 f3 04 6f 3e b6 e2 5d 3d 50 bf c4 3d ea 03 a5 3d
       0.23341732 0.054171287 0.096068025 0.08057387
000020 d4 ba 89 3e a6 a1 0f 3e fd e3 91 3e bd a4 c8 3e
       0.2690035 0.14026508 0.28494254 0.39188185
000030 c5 1b f9 3d 83 ed 2c 3c 0b ea b1 bc 3b 83 25 ba
       0.121635 0.010554674 -0.021718046 -0.00063138054
000040 30 6f 4c bd 9b 6f 97 bc f2 3d 51 bd bd 05 0b 3e
       -0.049910724 -0.018485835 -0.051084466 0.13576408
000050 13 71 64 3d 92 31 71 3e 45 54 51 3e 63 3a bb 3d
       0.0557719 0.23554066 0.20442303 0.09141996
000060 b3 ab 23 3e 08 96 4d 3e a9 73 f7 3d d2 10 8d 3e
       0.15983467 0.20076764 0.12082607 0.27551895
000070 fe 0f 37 3e 0c f0 4d 3e 55 40 9d 3e 7e 58 90 3d
       0.17877194 0.20111102 0.30713144 0.070481285
000080 80 c4 41 3e b9 ab bc bd 26 58 8b 3e 02 90 bf 3e
       0.18922615 -0.09212441 0.2721569 0.37414557
000090 23 be 89 bd 28 01 2c be 1c d0 1f bf 4c 5a 31 3e
       -0.06725719 -0.16797316 -0.62426925 0.17319602
0000a0 77 bc f9 be 49 e1 0a 3e 90 68 7d 3d d7 35 dd 3e
       -0.487766 0.13562502 0.061867297 0.4320514
0000b0 d1 ef 07 3d 0e 25 84 3e 84 3a 39 3e 06 b6 06 3d
       0.03318769 0.2580952 0.18088728 0.032888435
0000c0 d8 71 fb be 53 4f f1 3d c7 3c 1f 3e 94 bc 97 3e
       -0.49110293 0.11782708 0.15550528 0.2963606
0000d0 8f 19 20 be e0 d8 9a 3e b6 5d 8c 3e 86 80 90 3e
       -0.1563475 0.30243587 0.27415246 0.28223056
0000e0 da 56 f9 3c 05 e2 49 3e c3 57 87 bc e0 2e 0b 3e
       0.030436922 0.19715126 -0.01652134 0.135921
0000f0 2d c8 79 3e a0 6d 48 3e 31 ba 0d 3d 52 c6 5c 3e
       0.24392767 0.19573069 0.034601394 0.21560028
